model.pth (torch, 378536 bytes, 8 tensors)

conv1.weight f4 [32, 1, 3, 3]
0	0x3eddff80	0.43358994
1	0x3d97d221	0.07413126
2	0x3ec03571	0.37540773
3	0x3d634710	0.055487692
4	0x3edcbbda	0.4311207
5	0x3e8d8af3	0.27645072
6	0x3d883f63	0.06652715
7	0xbdd5437f	-0.104132645
8	0x3efebbd1	0.49752668
9	0x3e7d57a7	0.24740468
10	0x3e8c9027	0.2745373
11	0xba3b0078	-0.0007133554
12	0x3e5005be	0.2031469
13	0x3da80a38	0.08205074
14	0x3f10151e	0.5628222
15	0x3ed66c99	0.41879728
16	0xbdc74a76	-0.09730999
17	0x3f0837a4	0.532099
18	0xbe7a467b	-0.24440949
19	0x3d93d3ac	0.072181076
20	0xbec70843	-0.3887349
21	0x3ecd49ad	0.40095273
22	0x3de6f6a0	0.11277509
23	0xbe3f3c03	-0.18675236
24	0x3e3465b6	0.17616925
25	0x3dcf07fb	0.10108944
26	0x3ef66a37	0.4812791
27	0x3ee19c10	0.4406438
28	0x3efb6fb9	0.49108675
29	0x3e6883b5	0.22706492
30	0xbe11dc66	-0.14244232
31	0x3e87feb7	0.2656152
32	0x3ed90cc3	0.4239255
33	0x3d3768c9	0.044777665
34	0x3caee7a7	0.021350695
35	0xbe291c7f	-0.16514777
36	0xbea25c67	-0.31711122
37	0xbe640ed7	-0.22271286
38	0x3e1de91a	0.15420952
39	0xbeec9ebd	-0.46214858
40	0xbe58a80c	-0.21157855
41	0x3eb21a00	0.3478546
42	0xbd3efad6	-0.046625935
43	0xbe658a93	-0.22416143
44	0x3de9cd36	0.11416094
45	0x3e9db971	0.30805543
46	0x3d5678f6	0.05236145
47	0xbed3276c	-0.41241014
48	0x3e5546e1	0.2082782
49	0x3e8ac6e2	0.2710486
50	0xbeade595	-0.3396422
51	0x3e84abc7	0.25912306
52	0xbea94e67	-0.3306763
53	0xbe22a2de	-0.15882441
54	0xbc1cfb6b	-0.009581427
55	0xbea283ae	-0.3174109
56	0xbcc9552c	-0.024576746
57	0x3e49d389	0.197096
58	0xbb238666	-0.0024951934
59	0x3eaf289b	0.34210667
60	0x3efe5102	0.4967118
61	0x3ef635d0	0.4808793
62	0x3ea8a9b7	0.32941982
63	0x3dbe0f4d	0.09280262
64	0x3eb0b041	0.3450947
65	0x3d78f6de	0.060782306
66	0xbdaf1e05	-0.08550648
67	0xbea9dd60	-0.33176708
68	0x3e982349	0.2971442
69	0xbe6ff825	-0.23434503
70	0xbe586214	-0.21131164
71	0x3c50b91a	0.012739444
72	0xbe6caa65	-0.23111875
73	0xbcdfc0b8	-0.027313575
74	0x3ea19b24	0.31563675
75	0xbe30e68b	-0.17275445
76	0xbed65002	-0.41857916
77	0xbe2a4319	-0.16627158
78	0x3d098fb3	0.033584308
79	0x3d8a0e72	0.067410365
80	0xbe9b05db	-0.30277905
81	0x3ea9d345	0.33168998
82	0xbe0b2432	-0.13588026
83	0xbdfb5d5e	-0.12273668
84	0x3ecdd31d	0.4020013
85	0xbc9c4b85	-0.01907898
86	0x3e693876	0.22775444
87	0x3eada8b6	0.3391778
88	0xba2c8a87	-0.00065819215
89	0x3ed10df8	0.4083097
90	0xbdf09259	-0.117466636
91	0xbd231119	-0.039811227
92	0x3e8512bf	0.25990865
93	0x3e876cf7	0.2645032
94	0x3e4c54dc	0.19954246
95	0xbe6565aa	-0.22402063
96	0x3e4d8745	0.20071132
97	0xbd28c98b	-0.04120783
98	0xbe8671c2	-0.26258665
99	0x3e0b23d1	0.13587882
100	0x3e61f8f2	0.22067621
101	0x3e1f04b4	0.15529138
102	0x3ef40690	0.47661257
103	0x3e3ba91c	0.18326229
104	0x3e9c79ef	0.30561778
105	0x3e07f4a0	0.13276911
106	0x3e91f382	0.28506094
107	0xbe3fac7f	-0.18718146
108	0x3ee2c235	0.44288793
109	0xbe6fb20c	-0.23407763
110	0x3e2dbecb	0.16967313
111	0x3eb7046f	0.3574557
112	0xbdeb175f	-0.11479067
113	0xbd9134df	-0.070901625
114	0x3e5756c6	0.21029195
115	0x3e482f9f	0.19549416
116	0x3f040587	0.51570934
117	0x3ebc93f6	0.36831635
118	0xbe007bd4	-0.12547237
119	0xbdedb378	-0.116064966
120	0x3d8a8138	0.06762928
121	0x3ed08964	0.4072982
122	0xbe31d062	-0.17364648
123	0x3ef9bf0b	0.48778567
124	0x3ecf8ee8	0.40538716
125	0xbe685dc0	-0.22692013
126	0x3ea2d11f	0.31800172
127	0xbe67f385	-0.22651489
128	0xbe3e022d	-0.18555517
129	0x3bf43d36	0.007453586
130	0xbea59cce	-0.32346195
131	0xbce49336	-0.027902227
132	0x3e07e4e5	0.1327091
133	0x3eb71bf2	0.35763508
134	0x3d90ca9a	0.07069893
135	0xbd1aa47c	-0.03775452
136	0x3d7cb4eb	0.061695974
137	0x3e9e04b2	0.30862957
138	0x3ed42979	0.4143789
139	0x3ec98598	0.39359736
140	0x3d39b7b0	0.045341194
141	0x3ef0c475	0.47024885
142	0x3f05e73d	0.52305967
143	0x3c4e2933	0.012583065
144	0x3d604c3f	0.054760214
145	0x3eef7cf2	0.46775013
146	0x3d8282ba	0.0637259
147	0x3e523687	0.20528613
148	0x3ed840f3	0.42237052
149	0x3dd279b1	0.10277117
150	0xbe825ff1	-0.25463822
151	0x3f053717	0.52037185
152	0x3eab7744	0.3348943
153	0x3ece911f	0.40345094
154	0xbe28934a	-0.16462436
155	0xbed85cb7	-0.42258236
156	0xbe9166ed	-0.2839884
157	0xbeb15190	-0.3463254
158	0xbd2c2d67	-0.042035487
159	0xbbd2d4a4	-0.00643404
160	0xbed9e5eb	-0.42558226
161	0xbe6b4988	-0.22977269
162	0x3d034409	0.032047305
163	0x3e617cf1	0.22020318
164	0x3eb3f86b	0.35150465
165	0x3f0aff1c	0.54295516
166	0x3f112f1e	0.5671252
167	0x3f0f4e3c	0.5597875
168	0x3eff74b0	0.49893713
169	0x3f148aae	0.5802411
170	0x3e9d0bc4	0.3067304
171	0x3e661e7d	0.22472568
172	0x3dbe7ca1	0.09301115
173	0xbe334b3c	-0.17509168
174	0x3ee7e9b7	0.45295498
175	0x3eae58a3	0.34052
176	0x3cb7f439	0.022455322
177	0xbda5ec9a	-0.08101769
178	0x3e424834	0.18972856
179	0xbca8dbd8	-0.020612642
180	0xbe4b6aa0	-0.19864893
181	0xbe19c340	-0.15015888
182	0xbd638d00	-0.05555439
183	0xbe29293b	-0.16519634
184	0xbe83f6b2	-0.2577415
185	0xbe1ff383	-0.15620236
186	0xbde4c690	-0.11170685
187	0xbad3ff00	-0.0016174018
188	0xbe085d38	-0.1331681
189	0x3f0630ed	0.52418405
190	0xbd1c3c6b	-0.038143557
191	0x3e43a477	0.19105707
192	0x3e5e90bc	0.217349
193	0x3ea09cff	0.3136978
194	0x3ea65113	0.3248373
195	0x3ee03e3f	0.4379749
196	0x3e279aac	0.16367596
197	0xbd3d6ac7	-0.04624441
198	0xbdefae37	-0.11703151
199	0xbd79db4b	-0.06100015
200	0xbeb66aa0	-0.35628223
201	0xbdaa1028	-0.08303863
202	0xbe680aa8	-0.22660315
203	0x3d5136a3	0.051077496
204	0x3e68e3d2	0.22743157
205	0x3e4fdadf	0.20298336
206	0x3ec5337f	0.3851585
207	0x3e970e18	0.2950294
208	0x3e958f93	0.292111
209	0xbd9b5002	-0.0758362
210	0x3daeb34f	0.08530294
211	0x3e893e46	0.26805323
212	0x3da6c5b0	0.08143175
213	0xbe8682cf	-0.26271674
214	0xbeaa493f	-0.33259007
215	0xbe4d5d73	-0.2005518
216	0x3e5dd557	0.21663414
217	0x3ecaa97b	0.39582428
218	0x3e960207	0.29298422
219	0x3d09cd6c	0.03364317
220	0xbea11909	-0.31464413
221	0xbea3e8ce	-0.32013553
222	0xbeaf0a4a	-0.34187537
223	0xbe30ae18	-0.17253911
224	0xbcaf0665	-0.021365354
225	0x3e8178c6	0.25287455
226	0x3dc8b55e	0.09800218
227	0x3ec6aeb0	0.3880515
228	0xbe35dd69	-0.17760243
229	0xbdfa02a9	-0.12207539
230	0xbe4fc2c8	-0.20289147
231	0xbe1ced38	-0.15324867
232	0x3d23ff67	0.040038493
233	0xbea9e6f6	-0.33184022
234	0x3c8f196f	0.017468182
235	0xbe2d952e	-0.16951439
236	0xbe863ba7	-0.26217386
237	0x3e3354e8	0.17512858
238	0x3f047200	0.5173645
239	0x3e9fd98e	0.3122067
240	0xba850a89	-0.0010150234
241	0x3f0d350e	0.5515908
242	0x3f188583	0.5957872
243	0x3e35bcf1	0.17747857
244	0x3b6406f8	0.0034794193
245	0x3ede321e	0.4339761
246	0x3e7b3366	0.24531326
247	0xbe1a591f	-0.1507306
248	0xbe8e29ab	-0.27766165
249	0xbdc98d8b	-0.0984145
250	0xbddb7ae1	-0.10716797
251	0xbec6d605	-0.3883516
252	0x3eeed3a1	0.46645835
253	0x3e9752e9	0.29555443
254	0xbc58ae83	-0.013225201
255	0x3d612986	0.05497124

conv1.bias f4 [32]
0	0x399f2744	0.00030356098
1	0x3ab0ac89	0.0013479154
2	0x3c1e3451	0.009656028
3	0x3d389aa8	0.045069367
4	0x3ea69e8f	0.32542846
5	0x3eb9b69e	0.36272138
6	0x3a635e26	0.0008673392
7	0x3e03f232	0.12885359
8	0x3e344b35	0.17606814
9	0x3ddc440d	0.10755167
10	0xbdcb6128	-0.099306405
11	0xbd231167	-0.039811518
12	0xb8e7f4d5	-0.00011060542
13	0xbd064209	-0.03277782
14	0x37ec04c3	2.813561e-05
15	0xbd870c04	-0.06594089
16	0xbde0f17e	-0.10983561
17	0x3ea96bbf	0.33090016
18	0x3e032c6e	0.12809917
19	0xbbdba554	-0.0067030583
20	0xbc272220	-0.010201007
21	0x3afc65b0	0.001925638
22	0xbd11cd3e	-0.035596125
23	0x3eace312	0.3376699
24	0x3e64c0d5	0.22339185
25	0x3e1f68bb	0.15567295
26	0x3a6711f7	0.00088146277
27	0x3e3992d9	0.18122424
28	0x3e694efb	0.22784035
29	0x3e89677e	0.2683677
30	0x3e88d991	0.2672849
31	0x3ec1505c	0.37756622

conv2.weight f4 [64, 32, 3, 3]
0	0xba9fdd13	-0.0012196623
1	0xbd032da8	-0.032025963
2	0xbde76c61	-0.112999685
3	0x3cb349ef	0.02188584
4	0x3c2c271b	0.01050737
5	0x3cef34ee	0.029200044
6	0x3d734a81	0.059397224
7	0x3c676239	0.014122539
8	0x3d33e261	0.043917064
9	0x3c984c06	0.018590938
10	0xbd292422	-0.041294225
11	0xbdec8ed9	-0.115506835
12	0x3bdefe39	0.006805208
13	0x3d93e4cb	0.07221373
14	0xbcbf5533	-0.023356056
15	0x3c80b507	0.01571132
16	0x3c849d27	0.016188217
17	0x3d78bc25	0.060726304
18	0x3db87e62	0.090084806
19	0x3cc40533	0.02392826
20	0xbd341380	-0.04396391
21	0x3ddd7ffe	0.10815428
22	0x3df4add9	0.11947221
23	0x3e1c50ba	0.1526517
24	0xbdd7f44d	-0.105446436
25	0x3d2f6ef4	0.042830423
26	0x3df031f9	0.117282815
27	0xbd53419c	-0.05157624
28	0xbe09061e	-0.1338124
29	0xbe0cee54	-0.1376279
30	0x3beff1a0	0.007322505
31	0x3d662b19	0.056193445
32	0xbd01091a	-0.03150282
33	0xbbead62e	-0.0071666455
34	0x3dc5925e	0.09647058
35	0xbb891c69	-0.004184295
36	0x3d72fe37	0.05932447
37	0x3d022093	0.031769346
38	0xbcf43fc7	-0.029815568
39	0xbd31a0c9	-0.043366227
40	0xbda33029	-0.0796817
41	0xbd3eaeff	-0.046553608
42	0xbd72115a	-0.05909858
43	0xbd5db937	-0.054131713
44	0xbd651ee2	-0.055937655
45	0x3b1fad7a	0.0024364875
46	0xbd975819	-0.0738985
47	0xbd91cba9	-0.07118923
48	0xbc26e29f	-0.010185867
49	0xbd7b5da1	-0.06136859
50	0xbd6df641	-0.058096174
51	0xbd480d92	-0.048841067
52	0xbdc7be59	-0.09753103
53	0xbbccc803	-0.006249429
54	0x3d56ce4d	0.052442838
55	0x3d9b083e	0.075699314
56	0xbd424548	-0.047429353
57	0x3d12afb0	0.03581208
58	0x3cabd416	0.020975154
59	0x3dce137a	0.100623086
60	0xbd84d047	-0.06485038
61	0xbd61565d	-0.055014003
62	0x3dd847f7	0.10560601
63	0xbd49892e	-0.04920309
64	0xbd6fc524	-0.058537617
65	0xbd82f6bf	-0.06394719
66	0xbcc00b19	-0.023442792
67	0x3d30a7e8	0.043128878
68	0xbded6f9a	-0.11593552
69	0x3c606ff0	0.013698563
70	0x3c0b8b2f	0.008517071
71	0xbba58558	-0.005051296
72	0xbc23ee54	-0.010005552
73	0x3d486764	0.048926726
74	0x3dbd0725	0.09229878
75	0xbd1cc036	-0.038269244
76	0xbd6cf884	-0.05785419
77	0x3ca0fd9b	0.019652179
78	0xbb89cc1f	-0.0042052413
79	0x3c946072	0.018112395
80	0x3c2118a0	0.009832531
81	0x3d560434	0.052250102
82	0xbd1ef9d4	-0.038812473
83	0xbd6d620a	-0.057954825
84	0x3d15f242	0.03660799
85	0x3c12ff63	0.008972022
86	0xbba71ad8	-0.0050996356
87	0xbd533b74	-0.05157037
88	0x3d4f7da3	0.050656926
89	0x3dda323f	0.10654115
90	0xbdf100be	-0.1176772
91	0xbc67a2b4	-0.014137913
92	0xbcbe8490	-0.02325657
93	0xbca2d69c	-0.019877724
94	0xbd282a3c	-0.041055903
95	0xbd9de38d	-0.077094175
96	0x3d34157a	0.043965794
97	0xbe0a095d	-0.13480134
98	0xbceb5f8c	-0.028732084
99	0xbd811493	-0.06302752
100	0xbc19e7d3	-0.00939365
101	0xbe110bb9	-0.14164628
102	0x3d0f03d9	0.03491578
103	0x3dc4c12a	0.096071556
104	0x3d53cfda	0.051711895
105	0x3d82858b	0.063731275
106	0x3d385b24	0.045008793
107	0x3d072a3c	0.032999262
108	0xbb4dc798	-0.0031399485
109	0x3d6e5e70	0.05819553
110	0xbdb510d7	-0.088411026
111	0x3cc2b34c	0.023767136
112	0x3da17b1d	0.0788481
113	0x3dc55ded	0.096370555
114	0x3d011797	0.031516638
115	0x3d800bf3	0.06252279
116	0x3cffb9f1	0.031216593
117	0xbd0dba22	-0.03460134
118	0x3d8c51ca	0.068515375
119	0x3bf5599c	0.007487489
120	0xbb2027f9	-0.0024437888
121	0x3dd2c7ee	0.1029204
122	0x3d0656e7	0.03279772
123	0x3d4f81d6	0.05066093
124	0xbd554bf7	-0.0520744
125	0x3dbc7c86	0.092034385
126	0x3cc5e6a5	0.024157831
127	0x3d95b17e	0.073092446
128	0xbc80f437	-0.01574145
129	0x3d5ff2e8	0.054675013
130	0x3d4a57c0	0.04940009
131	0x3dfff249	0.12497384
132	0xbe1767df	-0.14785717
133	0xbd14fa79	-0.03637168
134	0x3d2567e3	0.040382277
135	0xba04e314	-0.00050692377
136	0xbd530cd0	-0.05152589
137	0xbda8d381	-0.08243466
138	0x3cbd5fdf	0.023117004
139	0x3d2013ee	0.039081506
140	0xbcde1bda	-0.02711289
141	0x3d5e9065	0.054336924
142	0xbd193b54	-0.037410095
143	0x3d61f0ab	0.05516116
144	0xbcff6e5d	-0.031180555
145	0xbd4e286b	-0.050331514
146	0xbd7f6c32	-0.062359042
147	0x3d89ec4e	0.06734525
148	0x3d4344e6	0.04767313
149	0x3d120068	0.03564492
150	0xbd3620ce	-0.04446488
151	0x3d1b960d	0.037984896
152	0x3d475659	0.048666332
153	0xbd0f9295	-0.0350519
154	0xbd45718a	-0.048203982
155	0xbd36db55	-0.044642765
156	0xbe19e908	-0.150303
157	0xbe0c9fc7	-0.13732825
158	0xbda69ad4	-0.08135
159	0xbca04959	-0.019566225
160	0xbdd3d895	-0.10344044
161	0xbe3e1239	-0.18561639
162	0x3bc72b02	0.006078125
163	0xbce7a4df	-0.028276859
164	0xbdda6a03	-0.106647514
165	0x3d3dbd5e	0.046323173
166	0xbc3db857	-0.011579595
167	0xbcb5eff0	-0.022209138
168	0x3d26028a	0.040529765
169	0x3d5b2095	0.05349787
170	0x3db27d2e	0.087152824
171	0x3b4e2d68	0.003146017
172	0x3b5b38ae	0.0033450532
173	0xbdff74a0	-0.12473416
174	0x3da860c6	0.08221583
175	0x3d919687	0.07108789
176	0x3d3912af	0.045183834
177	0xbd55c149	-0.052186284
178	0xbcc0a7aa	-0.023517448
179	0x3db98ccf	0.0906006
180	0x3ce7e1d2	0.028305922
181	0x3d124995	0.035714705
182	0x3d320fc5	0.04347207
183	0x3d65a64f	0.056066807
184	0xbd1449de	-0.036203258
185	0x3beec468	0.007286597
186	0xbd042612	-0.03226287
187	0x3d4d3f6d	0.050109316
188	0xbcb26848	-0.02177824
189	0xbd927cfa	-0.07152744
190	0xbc210a9b	-0.009829189
191	0xbdfd5812	-0.12370314
192	0x3d21d209	0.039506946
193	0x3da69e2b	0.08135637
194	0x3d0659b5	0.032800395
195	0x3d42b19c	0.047532663
196	0x3d882f29	0.0664962
197	0x3d95521d	0.072910525
198	0x3e170837	0.14749227
199	0x3d897ea5	0.06713609
200	0xbca23fde	-0.019805845
201	0xbcb7fc03	-0.022459036
202	0x3b63e074	0.0034771236
203	0x3c5b1779	0.013372296
204	0xbe087a88	-0.13327992
205	0xbde79257	-0.11307209
206	0xbca2ee65	-0.019889066
207	0xbd1fc39d	-0.03900491
208	0xbd741842	-0.059593447
209	0xbc1d9225	-0.009617363
210	0xbd210cb9	-0.039318774
211	0x3c99bd84	0.018767126
212	0xbd3fe83b	-0.04685233
213	0x3d29fe08	0.04150203
214	0x3b2435aa	0.00250564
215	0xbc9cdd10	-0.01914838
216	0xbdc630b3	-0.096772574
217	0xbda8906e	-0.08230673
218	0xbdb4d9b4	-0.08830586
219	0x3d13c8f0	0.0360803
220	0xbd61d39b	-0.055133443
221	0xbdaf3620	-0.085552454
222	0xbd2af772	-0.04173989
223	0x3d933891	0.071885236
224	0x3b5ff8b4	0.0034175338
225	0xbde56788	-0.11201388
226	0xbdccbbea	-0.09996779
227	0xbd84b09b	-0.06478997
228	0x3c9aa367	0.018876744
229	0xbd3f6530	-0.04672736
230	0x3b38d497	0.0028202885
231	0x3b1f23dd	0.002428285
232	0xbc32cd7e	-0.010913251
233	0xbba96d0b	-0.0051704696
234	0x3dc07757	0.09397762
235	0x3d13b5f6	0.036062203
236	0xbd9d1f67	-0.07672005
237	0x3dd70e2d	0.10500751
238	0x3db598cc	0.08867034
239	0x3d512168	0.05105725
240	0xbd6c44a9	-0.057682667
241	0x3cffa730	0.03120765
242	0x3d85dcc7	0.065362506
243	0xbdaeb67f	-0.08530902
244	0xbdbf05a8	-0.09327251
245	0xbca62b25	-0.020284245
246	0xbc58015d	-0.013183919
247	0xbe0966b4	-0.13418084
248	0xbdcbe7db	-0.09956332
249	0x3c805891	0.015667232
250	0x3d272728	0.040808827
251	0xbcc36258	-0.023850605
252	0x3d0b4d54	0.034009293
253	0xbccd3cd2	-0.025053415
254	0xbe012705	-0.12612541
255	0x3db28365	0.08716468

conv2.bias f4 [64]
0	0xbd4c433c	-0.049868807
1	0xbd36ba7b	-0.044611435
2	0xbcd2b1d1	-0.025719555
3	0x3c42f432	0.011899041
4	0xbd1389fe	-0.03602027
5	0xbb2d52ff	-0.0026447175
6	0x3db0ce42	0.086330906
7	0xbcdb6251	-0.02678028
8	0x3882fd93	6.246115e-05
9	0x3d822bce	0.06356011
10	0xbc857655	-0.016291777
11	0xbd336e4e	-0.043806367
12	0xbd3d2636	-0.04617902
13	0x3d29c4ab	0.041447323
14	0x3cc1a44e	0.023637917
15	0x3d1d63b1	0.03842515
16	0x3b90d9bb	0.0044204867
17	0x3d8bbd0c	0.06823167
18	0x3c40703b	0.011745508
19	0x3d96dbe8	0.073661625
20	0xbd7bfaee	-0.061518602
21	0x3c5e3acc	0.013563823
22	0x3d37062e	0.044683628
23	0xbd2a9bb7	-0.041652407
24	0x3d2264d0	0.039646924
25	0x3c6d2282	0.014473559
26	0x3d1dc46f	0.03851741
27	0x3d326721	0.043555383
28	0x3caeaf17	0.021323724
29	0xbc3f6528	-0.011681832
30	0xbcfc5d12	-0.030806098
31	0xbd4928e0	-0.049111247
32	0x3d02c05d	0.031921733
33	0x3bf2bbfb	0.007407663
34	0x3c2224f7	0.009896508
35	0xbc8507e7	-0.01623912
36	0xbd5cb7ce	-0.053886227
37	0x3d0a53af	0.033771213
38	0xbcc70d27	-0.024298264
39	0x3daac44f	0.08338224
40	0x3c909084	0.017647035
41	0x3d1291db	0.03578363
42	0xbd13f2bc	-0.03612016
43	0x3d3b185d	0.04567753
44	0xbd9189ac	-0.07106337
45	0xbcd10f18	-0.025519893
46	0xbc10db32	-0.008841323
47	0x3bf62759	0.007512015
48	0x3bd63aa4	0.006537752
49	0xbb3d27e0	-0.0028862879
50	0x3ccf7129	0.025322514
51	0xbd09981d	-0.033592332
52	0x3da6d30b	0.08145722
53	0x3d1d227d	0.03836297
54	0xbcc45b48	-0.023969308
55	0x3d7014b6	0.0586135
56	0xbcf430d5	-0.029808441
57	0x3b8c11ee	0.0042745983
58	0xbd5f477e	-0.05451154
59	0x3bf81e93	0.007572004
60	0xbcde11e5	-0.027108142
61	0x3d8103ce	0.06299554
62	0x3d499397	0.04921302
63	0xbd56320c	-0.052293822

conv3.weight f4 [128, 64, 3, 3]
0	0xbd6a9044	-0.05726649
1	0xbd4f5700	-0.05062008
2	0x3c05e9eb	0.008173446
3	0x3cdeec11	0.027212175
4	0xbca7e2ce	-0.020493891
5	0xbd231198	-0.0398117
6	0x3d4bcba5	0.049754757
7	0x3d2b3061	0.041794185
8	0xbc5df655	-0.0135475
9	0xbcbbea5b	-0.022938898
10	0xbc072b00	-0.008249998
11	0xbd122d2f	-0.03568762
12	0x3ae22820	0.001725439
13	0x3c9bf4c2	0.019037608
14	0x3ca4e9c6	0.020131003
15	0x3c287814	0.010282535
16	0xbcc4e056	-0.024032753
17	0x3be708e0	0.0070506185
18	0x3ce84f9f	0.028358279
19	0x3befcc5f	0.007318064
20	0xbc35f39a	-0.011105442
21	0x3cc7fa83	0.024411445
22	0xbd24baa9	-0.040217075
23	0xbd23da9e	-0.04000341
24	0xbcc65988	-0.024212614
25	0xbc607cc9	-0.013701626
26	0x3b8e022a	0.004333754
27	0xbd14a77b	-0.036292534
28	0xbc0b1d9c	-0.008490946
29	0xbcc39690	-0.023875505
30	0xbd26d4af	-0.040730175
31	0x3d49a19a	0.04922638
32	0xbbaac801	-0.0052118306
33	0x3d7375f3	0.059438657
34	0xbcd97001	-0.026542665
35	0xbc7fccf8	-0.015612833
36	0xbd115e9d	-0.03549062
37	0xbccba5d1	-0.02485934
38	0x3cafcca5	0.021459887
39	0x3cfa05d8	0.030520365
40	0xbc9fdd79	-0.019514786
41	0x3c163104	0.00916696
42	0x3c6af74c	0.014341187
43	0x3d46ab60	0.04850328
44	0x3ce4b0a4	0.02791626
45	0xbc089357	-0.00833591
46	0x3caf7b19	0.021421002
47	0x3d1e87a6	0.038703583
48	0xbcc0c56e	-0.023531642
49	0xbcafb25d	-0.021447355
50	0xbcaf5209	-0.021401422
51	0x3baea006	0.005329135
52	0x3b9983ec	0.0046849158
53	0x3d39aab0	0.045328796
54	0xbd25427b	-0.040346604
55	0xbe21914d	-0.15778084
56	0xbddb958b	-0.107218824
57	0x3d973347	0.07382827
58	0x3d744168	0.05963269
59	0xbd54b70a	-0.051932372
60	0x3d4dc15a	0.050233223
61	0x3cc6276b	0.024188718
62	0xbc32ed69	-0.010920861
63	0xbb26742e	-0.0025398838
64	0xbd84b482	-0.06479742
65	0x3c0d0980	0.008608222
66	0xbc072e65	-0.008250807
67	0xbc811995	-0.015759269
68	0xbd160171	-0.03662247
69	0xbc8d86c2	-0.017276172
70	0x3bf5e635	0.0075042495
71	0xbc55d661	-0.0130516
72	0x3d0fda0d	0.03512006
73	0xbce04238	-0.027375326
74	0xbced0bf8	-0.028936371
75	0xbaeafd60	-0.0017928295
76	0xbcd3171b	-0.025767853
77	0x3c12ba9c	0.008955624
78	0xbc7951fa	-0.015217299
79	0x3b927220	0.004469171
80	0xbc13c930	-0.009020135
81	0xbd5eb282	-0.054369457
82	0xbd67499d	-0.056466687
83	0x3d0901ca	0.03344897
84	0x3d1e8acf	0.038706597
85	0x3cc3c4c8	0.023897544
86	0x3cadffba	0.021240104
87	0x3cb17e25	0.021666596
88	0xbda8823f	-0.082279675
89	0x3c6c657f	0.014428495
90	0x3d5d520c	0.054033324
91	0xbc44919d	-0.011997608
92	0xbbb45fe6	-0.005504596
93	0xbd17f90b	-0.03710274
94	0x3c1b83fb	0.009491916
95	0x3cb6e176	0.022324305
96	0xbd41e717	-0.047339525
97	0x3d3edcd8	0.04659733
98	0xbc334ce8	-0.010943629
99	0x3bd080c4	0.0063630063
100	0x3d718a17	0.058969583
101	0x3c0daf56	0.00864776
102	0xbd0629ad	-0.03275459
103	0xbd28dcb6	-0.04122611
104	0xbc42f709	-0.011899718
105	0x3c87bbcc	0.01656904
106	0x3c55408a	0.013015876
107	0xbc7c3d9f	-0.015395551
108	0x3d3579c9	0.044305597
109	0x3c26f5c0	0.010190427
110	0xbcb5cbc5	-0.022191891
111	0xbcdd7fd9	-0.027038502
112	0x3c263f69	0.010146954
113	0xbc7aa15f	-0.015297263
114	0xbcd960fc	-0.026535504
115	0x3a81a977	0.0009892423
116	0x3b1ae8db	0.0023637328
117	0xbd704d06	-0.058667205
118	0xbe2a699f	-0.16641854
119	0xbd0e1ab1	-0.034693424
120	0xbc0e32ca	-0.008679101
121	0xbd23d057	-0.03999361
122	0x3af41297	0.0018621263
123	0xbc9cfe4f	-0.019164233
124	0xbd4cc5ef	-0.04999345
125	0x3d3b89a2	0.045785554
126	0x3cdf2dec	0.027243577
127	0x3a8f5f77	0.0010938485
128	0xbc67d46f	-0.014149769
129	0xbd509e05	-0.05093195
130	0xbd6ef470	-0.058338583
131	0xbd4ab7ca	-0.04949168
132	0xbbde05a6	-0.0067755757
133	0xbd01a7b8	-0.03165409
134	0xbcc70b30	-0.024297327
135	0xbc9f8bdf	-0.019475875
136	0xbcd5ea0c	-0.026112579
137	0xbd000749	-0.031256948
138	0xbc240af1	-0.010012374
139	0x3d000412	0.03125388
140	0xbc8745c5	-0.01651276
141	0xbd7a0cd8	-0.061047405
142	0x3c3f08b1	0.011659787
143	0xbc076471	-0.008263693
144	0xbd09d035	-0.033645827
145	0xbc8c15ff	-0.017100332
146	0xbd781c28	-0.060573727
147	0x3c301ade	0.010748593
148	0xbd6a599a	-0.057214357
149	0xbccd0c56	-0.025030296
150	0x3d8f35cd	0.069926836
151	0x3d696af4	0.056986764
152	0x3c033823	0.0080089895
153	0xbdd85f11	-0.105650075
154	0xbd9fd32e	-0.07803951
155	0xbc23c985	-0.0099967765
156	0x3cfb8660	0.030703723
157	0xbd2f0ff6	-0.04273983
158	0x3cee3d31	0.029081913
159	0x3cf61bd7	0.030042572
160	0xbba92a70	-0.0051625296
161	0x3d175502	0.036946304
162	0xbacfd319	-0.0015855759
163	0x3ba7eda7	0.005124766
164	0xbd46a381	-0.048495773
165	0x3be5c928	0.007012505
166	0xbca44170	-0.020050734
167	0xbdaf26ff	-0.0855236
168	0xbd1a3c56	-0.037655197
169	0xbcb0b534	-0.02157078
170	0xbd56f611	-0.05248076
171	0xbc73579b	-0.01485243
172	0xbdf20631	-0.11817587
173	0xbd9a833a	-0.07544561
174	0xbd2cedc4	-0.04221894
175	0xbd5bf94f	-0.053704556
176	0xbd89ed8b	-0.06734761
177	0xbc99d925	-0.0187803
178	0xbae390f4	-0.0017361925
179	0x3cdbf0ef	0.026848285
180	0xbd9e6324	-0.07733753
181	0x3c9e199e	0.019299325
182	0x3d22d049	0.039749417
183	0xbd1f097f	-0.038827416
184	0x3b7874d2	0.0037911427
185	0xbca916ae	-0.020640697
186	0xbb0040e6	-0.0019569932
187	0x3d7a231a	0.06106863
188	0x3d1e2f7c	0.038619503
189	0xbc546d01	-0.012965442
190	0xbd038cd9	-0.032116745
191	0xbcef2835	-0.029193977
192	0x3d656f8c	0.056014583
193	0x3d056cf6	0.032574616
194	0xbd10d245	-0.03535678
195	0xbd28a3c8	-0.04117182
196	0x3d032c4f	0.032024678
197	0xbc21674d	-0.009851289
198	0x3c88f219	0.016717004
199	0xbbab2913	-0.0052234023
200	0xb994feec	-0.0002841869
201	0x3cae3c68	0.021269038
202	0x3caff298	0.021477982
203	0x3c155bb6	0.009116104
204	0xbd18fb04	-0.037348762
205	0xbc883b43	-0.01662982
206	0x3c80bcf6	0.015715104
207	0x3cfaeb6d	0.030629838
208	0x3dbff98c	0.09373769
209	0xbc31d2a4	-0.010853443
210	0xbc19b94b	-0.009382556
211	0x3d0db1f4	0.034593537
212	0x3cb49b1f	0.022046624
213	0xbd78e916	-0.060769163
214	0xbcd2af48	-0.025718346
215	0x3d7eb297	0.062182035
216	0xbc326ac7	-0.0108897155
217	0x3d9c42ae	0.07629906
218	0x3d42bc9f	0.047543164
219	0x3ceedd83	0.02915836
220	0x3d117c25	0.035518784
221	0x3c262e14	0.010142822
222	0x3d29c85f	0.041450854
223	0xbc376b4a	-0.011195013
224	0xbc87ece3	-0.016592449
225	0x3bd204b9	0.0064092544
226	0x3cf14e28	0.029456213
227	0xbc92e5cb	-0.01793184
228	0x3ca3c67c	0.019992106
229	0x3b78661a	0.0037902654
230	0xbcde577c	-0.027141325
231	0x3bb1e2c4	0.005428644
232	0xbab8d1f2	-0.0014100655
233	0x3c9d01f5	0.019165972
234	0xbd769477	-0.06020018
235	0xbd261b84	-0.040553585
236	0x3d3d1a11	0.046167437
237	0x3b3cea5a	0.0028826208
238	0x3c614d33	0.013751316
239	0xbca718c6	-0.020397555
240	0x3cbe2016	0.02320866
241	0x3d0dd48d	0.034626532
242	0xbba612dc	-0.005068166
243	0x3c191314	0.0093429275
244	0x3c127e6e	0.008941276
245	0x3c685d6c	0.01418243
246	0x3c85fb57	0.0163552
247	0x3d9c87f4	0.076431185
248	0x3cc8ab1a	0.02449565
249	0x3bb1bb6f	0.005423955
250	0xbc8ee41f	-0.017442761
251	0x3ca28846	0.01984037
252	0xbd7a2862	-0.06107367
253	0xbd5e2f98	-0.054244608
254	0x3d17c39b	0.03705178
255	0x3cebf5ad	0.02880367

conv3.bias f4 [128]
0	0xbcb89420	-0.022531569
1	0xbd225bbb	-0.039638262
2	0x3d2bee9e	0.04197561
3	0x3cb09ab3	0.021558141
4	0x3caff4e8	0.021479085
5	0xbc91291c	-0.017719798
6	0x3910ac44	0.00013797084
7	0x3d2fb9d1	0.042901818
8	0x3d040a81	0.03223658
9	0x3ca792da	0.020455766
10	0x3c3c277a	0.011484021
11	0xbcd32056	-0.025772255
12	0xbc847916	-0.01617102
13	0xbccfef7b	-0.025382748
14	0x3cd6db37	0.026227577
15	0xbcb2ddd1	-0.021834286
16	0xbce4a8b4	-0.027912475
17	0xbd0074c9	-0.031361375
18	0xbc66d3dc	-0.014088597
19	0xbd19b598	-0.037526697
20	0x3d07dbc1	0.033168558
21	0x3ceb5020	0.02872473
22	0xbcde7a5f	-0.02715796
23	0xbce19b1e	-0.027539786
24	0xbc07f0c3	-0.008297148
25	0xbd10a857	-0.03531679
26	0x399508b9	0.00028425994
27	0x3cfd06c1	0.03088701
28	0x3cc2fff0	0.023803681
29	0xbd0bc98e	-0.034127764
30	0xbbbe451c	-0.0058065783
31	0xbc3a2be3	-0.0113630025
32	0x3cc4c4bb	0.02401959
33	0xbd374a14	-0.04474838
34	0xbc4c2a09	-0.012461194
35	0xbc9258f1	-0.017864676
36	0x3c2d1065	0.010562991
37	0xba736a51	-0.0009285557
38	0xbc7efb88	-0.015562899
39	0x3c1cd461	0.009572119
40	0xbbc0763f	-0.005873471
41	0xbcaff8a3	-0.021480864
42	0xbca72d7e	-0.020407435
43	0x3c62e2b5	0.0138479965
44	0x3c95efd5	0.018302837
45	0xbc518893	-0.0127889095
46	0x3c7daa66	0.015482521
47	0xbcfd766c	-0.030940257
48	0x3cd698c7	0.026195897
49	0xbc9ce04d	-0.019149924
50	0xbd002c29	-0.031292114
51	0xbb955481	-0.004557193
52	0x3c9037ed	0.017604792
53	0x3c8e93f6	0.017404538
54	0xbd044c0b	-0.032299083
55	0xbcdef192	-0.0272148
56	0xbb5b8628	-0.0033496711
57	0xbcfbe6e0	-0.030749738
58	0xbcd08865	-0.025455663
59	0x3c140279	0.009033793
60	0xbc054fdf	-0.0081367185
61	0x3ac38b6d	0.0014918871
62	0xbc960ad2	-0.018315706
63	0xbac6907c	-0.0015149261
64	0x3d10eb9f	0.035380956
65	0xbd1797c5	-0.037009973
66	0xbb30dcda	-0.0026987107
67	0x3d1fb967	0.038995173
68	0x3c80f244	0.015740521
69	0xbccac58b	-0.024752399
70	0xbcdf1daa	-0.027235825
71	0xbc9cf155	-0.019158045
72	0xbc64054c	-0.0139172785
73	0x3bdfcefc	0.0068300944
74	0xbd30b629	-0.04314247
75	0xbc0fddff	-0.008780955
76	0xbd250a40	-0.04029298
77	0xbd3bd21b	-0.04585467
78	0xbbda3a32	-0.0066597695
79	0x3cbd7349	0.023126261
80	0xbcefe66d	-0.02928468
81	0x3d27eba1	0.040996198
82	0xbc8b3c3e	-0.0169965
83	0x3b4a43de	0.0030863206
84	0x3c95faf2	0.018308137
85	0xbcb2cc95	-0.021826068
86	0xbd2b495e	-0.041818015
87	0xbcfb8542	-0.03070319
88	0x3c73c4f8	0.014878504
89	0xbd205976	-0.039147817
90	0x3cbed158	0.023293182
91	0xbbff1860	-0.007784888
92	0xbd43c37a	-0.047793843
93	0xbd46b941	-0.048516516
94	0x3cc9d51e	0.024637755
95	0x3d0e08ad	0.034676243
96	0x3ce68b4f	0.0281426
97	0xbc6444ce	-0.01393242
98	0x3c41b108	0.011821993
99	0xba92b680	-0.0011193305
100	0xbbea21b5	-0.0071451315
101	0xbc898ca5	-0.016790697
102	0x3d318a20	0.043344617
103	0x3bf640f5	0.0075150677
104	0x3d0dd355	0.03462537
105	0xbc619009	-0.013767251
106	0xbd2571ae	-0.040391617
107	0x3c7960de	0.015220849
108	0xbd065d61	-0.032803897
109	0xbd01edf5	-0.031721074
110	0xbd021690	-0.0317598
111	0xbcb5c37c	-0.02218794
112	0x3ca829a9	0.020527678
113	0xbd1e1e19	-0.038602922
114	0xbcb25ca2	-0.021772686
115	0xbba363c6	-0.004986259
116	0x3cac3c37	0.021024806
117	0x3c9bdfdc	0.019027643
118	0xbc3c6ffa	-0.011501307
119	0xbd10b0aa	-0.03532473
120	0x3c49b219	0.012310528
121	0xbc406209	-0.011742123
122	0x3cfaef42	0.030631665
123	0x3d018af2	0.03162665
124	0xbd1a932b	-0.037738007
125	0xbd21a0fd	-0.03946017
126	0x3caa43e9	0.020784335
127	0x3c796557	0.015221915

fc1.weight f4 [10, 128]
0	0xbd5797f7	-0.05263516
1	0xbde7b6e0	-0.113141775
2	0x3d8af254	0.06784502
3	0xbda3dd3e	-0.08001183
4	0x3ccb7df3	0.02484033
5	0x3dc9be70	0.09850776
6	0xbd066e1f	-0.032819863
7	0xbde8d784	-0.11369231
8	0x3cd1a5e8	0.025591806
9	0x3daf5259	0.085606284
10	0xbe280b99	-0.16410674
11	0xbda28c2f	-0.07936894
12	0xbe015d6c	-0.12633294
13	0xbe0fcf06	-0.14043817
14	0xbd78aee0	-0.06071365
15	0xbe3abf59	-0.18237056
16	0x3c6e3b53	0.014540511
17	0xbdb3a760	-0.087721586
18	0x3d8aaf60	0.067717314
19	0x3cc879d5	0.024472157
20	0x3d46e897	0.04856166
21	0xbe1dcc45	-0.15409954
22	0x3d80613b	0.06268545
23	0x3cbbe729	0.022937374
24	0x3d466161	0.04843271
25	0x3d551482	0.05202151
26	0x3d2b52cb	0.041827004
27	0xbe35a3fc	-0.17738336
28	0xbe0acf64	-0.13555676
29	0x3d83e659	0.0644042
30	0x3d456feb	0.048202436
31	0xbe01e472	-0.12684801
32	0x3e034dba	0.12822619
33	0xbd8bfbe6	-0.06835155
34	0xbd191c72	-0.037380643
35	0x3d7cf158	0.0617536
36	0xbd4db605	-0.050222415
37	0x3d022805	0.031776447
38	0xbdf872c7	-0.12131267
39	0xbda28a2f	-0.07936513
40	0x3d9d9d18	0.07695979
41	0xbdc38f12	-0.09548773
42	0x3bae3a9e	0.0053170463
43	0xbe3431dd	-0.17597146
44	0xbce695cb	-0.028147599
45	0x3dc3da66	0.095631406
46	0xbb9e655a	-0.0048338594
47	0x3d469d51	0.048489872
48	0xbdb7f0ba	-0.08981462
49	0x3dbed614	0.09318176
50	0xbca20232	-0.019776437
51	0x3d839405	0.06424717
52	0x3dfc2e87	0.12313562
53	0x3d06bd63	0.032895457
54	0xbdc462f5	-0.09589187
55	0x3d81d55c	0.06339523
56	0xbdf7ab89	-0.120932646
57	0x3d8a7da4	0.06762245
58	0x3dfa7f00	0.122312546
59	0x3d40943d	0.04701637
60	0x3d4c1564	0.049825087
61	0xbe0bf354	-0.13667041
62	0x3b996ce4	0.00468217
63	0xbd054a01	-0.03254128
64	0xbe0c6b91	-0.13712908
65	0xbe290c58	-0.16508615
66	0xbdbd1f7d	-0.092345215
67	0x3da3b5a2	0.07993628
68	0xbd17e651	-0.03708488
69	0xbd5a0c0d	-0.05323415
70	0x3d133ffa	0.035949685
71	0xbc44b0ae	-0.012005014
72	0xbe3720c6	-0.17883596
73	0xbe08fee1	-0.13378479
74	0x3d5025d3	0.050817322
75	0xbdae158b	-0.08500203
76	0x3d9a9b69	0.075491734
77	0xbe13b520	-0.14424562
78	0xbc8bc75c	-0.017062835
79	0xbdebf801	-0.11521912
80	0x3de0bab1	0.109731086
81	0x3cf2c1d4	0.02963344
82	0xbd8700d8	-0.06591958
83	0x3d30e3d8	0.04318604
84	0x3c9a0ad0	0.018803984
85	0x3dc9630f	0.09833347
86	0xbdbc553e	-0.09195946
87	0x3c60f42d	0.013730091
88	0xbdc15196	-0.094393894
89	0x3d8dc46e	0.069222316
90	0x3d460569	0.048345003
91	0x3c0758b8	0.008260898
92	0xbe35833c	-0.17725843
93	0xbde51b4b	-0.11186846
94	0xbce68eea	-0.028144319
95	0x3d88eb05	0.066854514
96	0x3d92fff8	0.071777284
97	0xbbbbd4ca	-0.0057321535
98	0xbd9544ea	-0.07288535
99	0xbdd76169	-0.105166264
100	0xbd49f309	-0.049304042
101	0xbcb4d053	-0.022071993
102	0x3df86654	0.121288925
103	0xbdc7b716	-0.09751718
104	0xbe0c4906	-0.13699731
105	0xbe02927c	-0.12751192
106	0x3d9e0b08	0.07716948
107	0x3d3feda2	0.046857484
108	0x3cb9ece2	0.022695962
109	0xbe5426be	-0.20717904
110	0x39cdf478	0.0003928279
111	0xbce28ecc	-0.027655981
112	0x3d5a5014	0.053299025
113	0xbe30cb89	-0.17265143
114	0xbd9bff3c	-0.076170415
115	0x3ce782a6	0.02826054
116	0x3c68c2a6	0.014206564
117	0xbd573865	-0.052544016
118	0x3dfa673c	0.12226722
119	0x3da3c8d2	0.07997288
120	0xbdc75635	-0.097332396
121	0xbdf0d02a	-0.11758454
122	0x3db2c216	0.08728425
123	0xbcdb1c78	-0.026746973
124	0x3cc13edf	0.02358955
125	0x3d84d499	0.06485862
126	0xbd372554	-0.044713333
127	0x3d5374ac	0.05162494
128	0xbe5207e0	-0.20510817
129	0x3d4d3fc9	0.05010966
130	0x3e043fc8	0.12914956
131	0x3d769c67	0.06020775
132	0x3daa6322	0.08319689
133	0x3cebb7b5	0.028774122
134	0xbddad08b	-0.10684308
135	0x3d9b0e50	0.07571089
136	0x3dc9dc49	0.09856469
137	0x3d92324f	0.07138502
138	0xbe1f0bec	-0.15531892
139	0xbd5e395b	-0.054253917
140	0xbe29d3ad	-0.16584654
141	0x3e0451aa	0.12921777
142	0xbd77c18a	-0.060487308
143	0x3d89bdef	0.0672568
144	0x3cd2e3a5	0.025743315
145	0x3d2dff6d	0.04247992
146	0x3d9d7514	0.076883465
147	0x3c3576b7	0.011075667
148	0xbe159493	-0.14607458
149	0xbdee618d	-0.116397
150	0x3c0188eb	0.007906179
151	0x3d391aef	0.0451917
152	0xbe111b55	-0.14170583
153	0x3d3231fa	0.043504693
154	0xbd8ed4b4	-0.06974164
155	0x3d579cec	0.052639887
156	0x3cd32fa0	0.025779545
157	0x3c361421	0.011113198
158	0x3dc9b619	0.098491855
159	0x3c32ea74	0.010920156
160	0x3d93beff	0.07214164
161	0x3bd1dd35	0.0064045438
162	0x3d3aac56	0.04557451
163	0xbe559627	-0.2085806
164	0x3d54b088	0.051926166
165	0x3d08d9c1	0.03341079
166	0xbd490048	-0.049072534
167	0x3db19c8c	0.08672437
168	0x3d90c0cd	0.07068024
169	0xbc97fce3	-0.018553203
170	0xbb45a993	-0.0030160889
171	0x3dc87c2c	0.09789309
172	0x3c31ae60	0.010844797
173	0x3c08051e	0.008302001
174	0x3c871d2d	0.016493404
175	0x3caba115	0.020950833
176	0xbe08baa2	-0.13352445
177	0xbc824aef	-0.015904872
178	0xbd244594	-0.040105417
179	0xbe3229ed	-0.17398806
180	0x3cee6fac	0.029105984
181	0xbbc54be1	-0.0060210084
182	0x3dc0d1f5	0.09415046
183	0xbe38d32c	-0.18049306
184	0xbdff24e9	-0.12458212
185	0x3d3d78be	0.046257727
186	0xbe3311c1	-0.17487241
187	0xbe15c5b4	-0.14626199
188	0x3dfc6cbc	0.12325427
189	0x3cb030cf	0.021507649
190	0xbbecbc12	-0.007224568
191	0xbd82defc	-0.06390187
192	0x3c933b33	0.017972564
193	0xbb1eb299	-0.002421534
194	0x3d700028	0.0585939
195	0xbcfc37a3	-0.030788248
196	0x3df8775a	0.121321395
197	0xbe6ee920	-0.23331118
198	0x3ddbd589	0.10734088
199	0x3cd5ae7d	0.026084179
200	0x3d935478	0.071938455
201	0x3e1f3398	0.15547025
202	0xbbc5504b	-0.0060215346
203	0x39facd11	0.00047836502
204	0xbe386df9	-0.18010701
205	0xbd5294c1	-0.051411394
206	0x3d44b768	0.048026472
207	0x3d88e726	0.06684713
208	0xbe27070e	-0.16311285
209	0x3d38f0da	0.04515157
210	0x3daa56e4	0.08317354
211	0xbe307ed0	-0.17235875
212	0xbd5f77ca	-0.0545576
213	0xbe22667a	-0.15859404
214	0x3d432b13	0.0476485
215	0x3cb6a752	0.022296581
216	0x3db9121f	0.090366594
217	0xbda20ae0	-0.079122305
218	0x3cdaca96	0.026707929
219	0x3da38fc0	0.079864025
220	0xbe356887	-0.17715655
221	0xbbc60886	-0.0060434965
222	0x3d6bfab6	0.057612143
223	0xbe7111a5	-0.23541887
224	0xbe467ea5	-0.19384249
225	0x3af4cdec	0.0018677092
226	0xbbfeaa32	-0.0077717537
227	0xbd3c28ae	-0.045937233
228	0xbd93866f	-0.072033755
229	0x3d2cb3f0	0.04216379
230	0xbdebc466	-0.115120694
231	0x3dfcce73	0.123440646
232	0xbe5b8d37	-0.21440588
233	0xbdb1f16a	-0.08688624
234	0xbde382ea	-0.11108954
235	0x3dd60982	0.10451032
236	0x3d5a8bea	0.05335609
237	0xbe267571	-0.16255738
238	0xbc8bce74	-0.017066218
239	0x3e0a280c	0.13491839
240	0x3cff8714	0.03119234
241	0xbcddfbac	-0.027097546
242	0x3d2a0c85	0.041515846
243	0xbdd1830f	-0.102300756
244	0xbc84b609	-0.016200082
245	0xbc536a45	-0.012903755
246	0xbd3ce803	-0.0461197
247	0xbdfb0aae	-0.12257896
248	0x3d802cce	0.06258546
249	0xbe3a32e8	-0.18183482
250	0x3d1120c3	0.035431635
251	0x3da455cf	0.08024179
252	0xbe1a11a4	-0.15045792
253	0xbe45526d	-0.19269724
254	0x3d63c272	0.05560536
255	0xbcb84914	-0.022495784

fc1.bias f4 [10]
0	0xbd2ece2c	-0.04267709
1	0xbd858764	-0.06519964
2	0xbddca74f	-0.10774099
3	0xbd118d9d	-0.035535444
4	0x3c86c768	0.016452506
5	0x3beec0be	0.0072861603
6	0xbc1d1e7d	-0.0095897885
7	0xbc9d525f	-0.019204317
8	0x3cf0c99f	0.029393015
9	0xbd68113f	-0.056657072
