models/model.pth (torch, 385243 bytes, 20 tensors)

conv1.weight f4 [32, 1, 3, 3]
00000000: b491 b43d 400e 213e b245 5ebe b6af b13d
00000010: a26e 343e df08 b43d fc37 9ebe ff6e aabe
00000020: 7ba8 dc3e 51e2 923e d10f 3fbe e7a2 a33e
00000030: 4179 82be e8a0 95be 7da0 0bbd 0031 a4bd
00000040: 31e0 233e 3f7d 213e 7cb1 f5bc 46cb 86bd
00000050: ade9 8b3e a51f 2ebe abbd 59be 4be8 04bf
00000060: d8f2 0cbd cfb8 3d3e 1af4 ab3c e9ef a6be
00000070: 3fd3 f1be d7c0 8a3d ae15 a8be a329 4a3e
00000080: 741b 803e bdaf 3dbe a5e9 ce3d e99c 103d
00000090: 3c83 0dbe a773 423d 2d47 84be fff4 77be
000000a0: 6f84 61be 321f 3abe 0ded adbd 46a0 953e
000000b0: 9419 413e 0f46 b4bd 8fa5 76be b64f 063d
000000c0: 9702 3b3e 17e4 e2be 6f84 8f3e 924b 2c3d
000000d0: 2a68 84be 662c 1abe b14b c23d a8c2 52bd
000000e0: 54d1 23bd bdb7 853e 71cb c33b 9d15 263e
000000f0: 0ca2 bf3c d353 0fbe b909 ce3e 3a5b 203e
00000100: 5845 bd3d ec0a 23be f856 5cbb 2ab1 85be
00000110: 579e 8dbe 2a26 65be 9642 4ebe ac47 793e
00000120: d597 2c3c f23d da3c 83a8 8dbe 37eb e43e
00000130: c71f 43bd 04ed 5dbe 254b 003e c067 60be
00000140: df63 1dbe bf9c 9dbe 9fd5 273e d9a6 ed3d
00000150: 0659 a7be 698a 0a3e 18c4 083e 5b67 6ebe
00000160: f5b5 48be a730 48bc 34f8 ebbe 33b7 983b
00000170: ed82 c13d bc09 d1bd d61f 3abe 03a6 babc
00000180: 7959 113e 6fdf 973d 6205 f83e 85a4 423e
00000190: 3415 6b3e 10ee c93e 88f1 4fbe 3d66 d2bd
000001a0: b38e 08be 802e e0be 16c8 13bd 6bb5 acbe
000001b0: d5dc e5bd 8744 6c3e 67d1 63bd a064 8cbe
000001c0: 870f b5bd 9ddf ca3e 309f 46be 5a68 86bd
000001d0: bcbf 923e b115 aa3d dba5 b33d 75f9 cfbd
000001e0: d02f 2c3e 7ae8 8d3c e135 c4be c5fa 263e
000001f0: c1ac 733e 5b5e 6dbe 7407 2a3e dd66 1c3e
00000200: 15ca ee3d 39a5 a03e 7bc3 433e 0937 923e
00000210: 5058 f43d e789 ac3e 3c20 843e 8401 57bd
00000220: a271 163d 1ea8 d53e 653b 663d 0893 db3d
00000230: 279d cdbc b695 88be 0313 d1be db50 6bbc
00000240: 7d4c 203e e6ad a1bd 195b 553e 491d 2d3e
00000250: f868 733e 4518 563e 1dae 91be 2f8c 3dbe
00000260: 0431 03bf 4645 bbbe 9148 fcbd a46d 6b3d
00000270: 85e7 ca3d b3b9 c33b 686a 45be ee32 13be
00000280: 9bd9 bf3e 30d8 54be 4d4b 81bd 0e69 383e
00000290: b95e 863e 34f1 57be 9b85 c8be d759 1ebe
000002a0: 4c84 143e 71af 003e bc11 1fbe 2a5e 60be
000002b0: 1187 323e ed9e a53e d7b9 903e cf2a 1ebc
000002c0: 7839 9abe 882f aabe 67ea 943e c7b4 583e
000002d0: 2cc4 523e 56fd 00be b9f9 4bbe f0e0 5f3e
000002e0: f96c e43d f7e9 2f3d 91c5 7c3c 9873 3abe
000002f0: d35e dbbe 9604 523e f919 dbbe ea95 66be
00000300: f5e4 b03d feff 123c a5e8 c9be cda4 f13d
00000310: 74c4 ac3e 177a 2d3e ded0 91bd 1ded d93c
00000320: ce8b d2be 0125 623e b81b e3bc 329d 9fbd
00000330: cd82 64be d6a8 ed3e a0a8 8b3d 1eb7 283e
00000340: 2937 2ebe 096e d6bd 528a ba3d b61e e7be
00000350: 72ca f33d 8029 0cbe e697 16be 042a 873e
00000360: 9640 00be 82ec 18bd 0e0c 953e 742f 3bbd
00000370: f236 763d 6a9a 8cbd 98b3 84be 083d 6bbe
00000380: 1413 9bbe 2f6b dd3d 82a3 143e 0d7e 6a3e
00000390: 0241 7bbd d853 623e e5cd 5bbd d140 c03c
000003a0: 4a08 aabe 2d72 afbe 6a9a 1abe 1708 4ebe
000003b0: db64 70be 5040 2dbe b42f 92bd c71b 8cbd
000003c0: 33e1 953e 626d 843e f350 ad3d 7a26 b73d
000003d0: 1246 503e 5b7f 81bd 4db7 343e b4cb 943d
000003e0: 3dd2 a7be c994 80be a133 99be 8574 7abe
000003f0: 7db8 99be 2e2f 29bd af3a 19bd 9dc8 233e
0.08816853 0.15728092 -0.21706274 0.08676092 0.17620328 0.087907545 -0.30902088 -0.33287808
0.4309729 0.2868829 -0.18658377 0.31960222 -0.25483134 -0.29224324 -0.0340886 -0.080171585
0.16003491 0.15770434 -0.029991858 -0.0658174 0.27326718 -0.17004259 -0.21263759 -0.5191695
-0.03441128 0.1852753 0.02099042 -0.32604912 -0.4723148 0.067750625 -0.3282904 0.19742446
0.25020945 -0.1852407 0.10103158 0.03530589 -0.13819593 0.047473576 -0.25835553 -0.24214552
-0.22023176 -0.18175963 -0.084924795 0.2922384 0.18857414 -0.08802425 -0.24086593 0.032790862
0.18262707 -0.44314644 0.28030726 0.042064257 -0.2586072 -0.15055999 0.09487093 -0.05145517
-0.039994553 0.26116744 0.00597518 0.16219182 0.0233927 -0.1399682 0.40241793 0.156598
0.09241742 -0.15922135 -0.0033621173 -0.26111728 -0.27659866 -0.2237784 -0.20142588 0.24343747
0.010534246 0.026640866 -0.27667627 0.44710705 -0.047637727 -0.21672446 0.12528665 -0.21914577
-0.15370129 -0.3078365 0.16390084 0.11604089 -0.32685107 0.13529362 0.13356054 -0.23281614
-0.19600661 -0.012218631 -0.460878 0.004660511 0.094488 -0.10206935 -0.18176207 -0.022784239
0.14194287 0.074156635 0.48441607 0.19008072 0.22957307 0.3943944 -0.2030698 -0.10273407
-0.13335685 -0.43785477 -0.03607949 -0.3373216 -0.11223761 0.23073016 -0.055619624 -0.2742052
-0.08840852 0.39623728 -0.19396663 -0.06562872 0.28661907 0.083049186 0.08771869 -0.10155002
0.16815114 0.017322768 -0.38322356 0.16306598 0.23796369 -0.23180525 0.16604406 0.15273614
0.11659638 0.31376055 0.19117539 0.28557613 0.11930907 0.3369896 0.25805843 -0.05249168
0.036729462 0.41729826 0.056208987 0.10721403 -0.02509935 -0.2667672 -0.40834817 -0.014362539
0.15654178 -0.078944966 0.20835532 0.16905703 0.23770511 0.20907696 -0.2845315 -0.18510507
-0.51246667 -0.3657629 -0.123185284 0.05747761 0.0990744 0.005973065 -0.19278872 -0.14374897
0.37470707 -0.20785594 -0.063131906 0.18008825 0.26244143 -0.21088105 -0.39164433 -0.15463959
0.14503592 0.12566926 -0.15534109 -0.2191092 0.17434336 0.32347813 0.28266785 -0.009653761
-0.3012197 -0.33239388 0.29085085 0.21162711 0.20582646 -0.1259664 -0.1991948 0.2186315
0.111535974 0.042947736 0.015427963 -0.18208158 -0.42845783 0.20509562 -0.42793253 -0.22518125
0.0863742 0.008972166 -0.39435306 0.117990114 0.33743632 0.16941105 -0.071199164 0.026602322
-0.41122288 0.22084428 -0.027723178 -0.077936545 -0.22315522 0.46417874 0.06819272 0.16476104
-0.1701323 -0.10470206 0.09108414 -0.45140618 0.11903848 -0.13687706 -0.14706382 0.26399243
-0.12524638 -0.037334926 0.2911076 -0.04569955 0.060110994 -0.0686539 -0.2591827 -0.229725
-0.30287993 0.10811459 0.14515498 0.22899647 -0.061341293 0.22102296 -0.053663153 0.023468407
-0.3320945 -0.34266797 -0.15097967 -0.20120274 -0.23475973 -0.16919065 -0.07138005 -0.068412356
0.29273376 0.25864702 0.084627055 0.08942886 0.2033923 -0.06323119 0.17648049 0.07265416
-0.32777587 -0.25113514 -0.29922202 -0.24458511 -0.30023566 -0.04130476 -0.03740948 0.15994497

conv1.bias f4 [32]
00000000: 11f4 9bbd 24cc 423e 9610 c2be e7aa 90bd
00000010: 2168 373d 94ba 1f3e 26b5 74bd 5a87 83bd
00000020: b00b b9be 1875 b33d d781 12be 0125 e4bd
00000030: 499f 01bc 1587 e2ba 6ad7 a73e b6e3 cbbe
00000040: 5e28 cd3c ed30 4ebe 055c cfbd 2f9e 0ebe
00000050: 4f10 72be 201a 573e 8030 acbe 6483 9dbe
00000060: 6a2d 6ebe 9938 6c3d 18c1 83be b5e3 a8be
00000070: a7cd 8bbc 39ec a93e 2d3a b1be 8de4 0cbe
-0.07614911 0.19023186 -0.3790328 -0.07063847 0.04477704 0.15598518 -0.05974307 -0.06422301
-0.3614173 0.08762568 -0.14307342 -0.111398704 -0.007911512 -0.0017282689 0.32781535 -0.39822167
0.025043663 -0.20135851 -0.10124973 -0.1392753 -0.23639034 0.2100606 -0.33630753 -0.30764306
-0.23259512 0.057671163 -0.25733256 -0.32986227 -0.017065836 0.33188036 -0.34614697 -0.1375906

bn1.weight f4 [32]
00000000: bde9 183f 40ba 463f db00 a53f 8001 823f
00000010: 6a59 ab3f 16b4 c53f 7e3e c63e a9a5 be3f
00000020: c44c be3f 58d2 943f e551 593f 02b5 8a3f
00000030: d8d6 823f 2270 8a3f 5164 fd3e 2f5a 813f
00000040: 0dfd 6b3f f0a9 4c3f 31a0 bd3f 91a8 013f
00000050: 8506 553f e825 6b3f 7b87 613f 3831 903f
00000060: 0d8e 9a3f fea4 843f 04c1 9c3f 1920 ab3f
00000070: 8c38 6b3f fd3c f83e d095 c53e 260b 3b3f
0.59731656 0.77627945 1.2890886 1.0156708 1.3386662 1.5445583 0.38719553 1.4894305
1.4867177 1.1626692 0.84890586 1.0836489 1.0221815 1.081547 0.49490598 1.0105647
0.92183 0.79946804 1.4814512 0.50647837 0.83213073 0.91854715 0.8809735 1.126502
1.20746 1.0362852 1.2246404 1.336917 0.9188316 0.4848403 0.3859086 0.73063886

bn1.bias f4 [32]
00000000: 5107 b6be 8076 98be 8f91 c6bd 386a bdbd
00000010: 05f6 3ebe 2580 27be 3a13 19bf 7f53 f4bc
00000020: a07b f4bd bd1e 65be 6c25 8bbe b300 a7be
00000030: 111d 1dbe 9369 57be 385d 0bbf c774 82be
00000040: 0f6b b8be 9432 72be 80d3 68bd 3cab b4be
00000050: 4d66 32be 8c5f 8fbe 3140 19be 736b d53d
00000060: c774 41be 43e8 6abe 7195 76be 3953 2fbe
00000070: d35d 7bbc bb91 1fbf a01b 2abf 25a3 63be
-0.35552457 -0.29777908 -0.09695732 -0.09248775 -0.18648537 -0.16357477 -0.5979496 -0.02982497
-0.11937642 -0.22375007 -0.27176988 -0.3261772 -0.15343119 -0.21036367 -0.54439116 -0.2547972
-0.3601918 -0.23652107 -0.056842327 -0.3528689 -0.17421837 -0.28002584 -0.14965893 0.10420885
-0.18892203 -0.22940163 -0.24080445 -0.1712159 -0.015342194 -0.6233174 -0.664484 -0.22230203

bn1.running_mean f4 [32]
00000000: 4260 92bd 4c39 433e f7d7 c7be 9796 abbd
00000010: ec0b 0b3d d6f8 123e b822 3cbd 7be8 9dbd
00000020: 6345 bdbe 9a07 a03d 9f89 11be 4353 f5bd
00000030: e979 acbb eac6 19b9 d18e bb3e 3cda cebe
00000040: 0f2a c63c 7f93 59be 13fc ddbd a2e1 07be
00000050: 0f17 77be c41a 543e 3743 acbe 5826 a1be
00000060: 95ad 7bbe 44fc 633d affe 86be eacc afbe
00000070: 8ad0 cdbc eff0 ba3e 891e aebe 38a3 07be
-0.07147266 0.19064826 -0.39031956 -0.08378332 0.033946916 0.14352736 -0.045931548 -0.07710358
-0.36967 0.0781395 -0.14212655 -0.119787715 -0.0052635563 -0.00014665318 0.36632398 -0.40400875
0.024189977 -0.21247672 -0.10839095 -0.13269666 -0.2412989 0.20713335 -0.3364503 -0.31474566
-0.24577935 0.0556605 -0.26366183 -0.34336025 -0.025123853 0.36511943 -0.3400767 -0.13245857

bn1.running_var f4 [32]
00000000: 00c1 1e3e eb55 003e af1b 943e df60 423f
00000010: 0501 db3e 0f53 c23e e0fd b13e 2c97 f43e
00000020: 17a8 cf3e 06a3 cb3e c11f e13e ad66 143f
00000030: 1c57 9f3e 43b7 883e 5d33 1f40 799c 8f3e
00000040: 7826 b13e 2c18 553e 0fb4 0d3e 8feb 5b3e
00000050: b26a b03e 0b1c b73e 9a2a 283e d442 933e
00000060: 59c1 f23e 87f5 9b3e d47d a73e efae 1f3f
00000070: 6426 143e c833 0e40 4aa3 d53d 6674 c83d
0.15503311 0.12532775 0.2892737 0.75929064 0.42774215 0.37953994 0.34764004 0.47771585
0.4055793 0.39772815 0.4396954 0.5796917 0.31121147 0.26702318 2.48751 0.28049067
0.34599662 0.20810002 0.13838218 0.21476577 0.34456402 0.35763583 0.16422501 0.28761923
0.47413138 0.3046076 0.32713187 0.623763 0.1446777 2.2219105 0.104315355 0.09787826

conv2.weight f4 [64, 32, 3, 3]
00000000: ac92 fb3d 54ed aa3d a7d9 f13d 8bf6 f83c
00000010: e3ed c93d f256 113e 8f2b 1f3b 9dc0 51bd
00000020: 5c8d b9bc a8c6 3fbe 531b 9e3d fc4b d13d
00000030: 9c3f e13b 27d6 bdbd 187e a43d 4ad0 8bbd
00000040: acba f1bd 397a 013e 733b 51bd 4f54 9ebd
00000050: 1f0d 91bd 6141 1d3e 38ac 5e3c 0f37 13be
00000060: 2ef5 29be 109a 853d 7e23 1f3d 75a4 a3bd
00000070: bbba ef3d ee52 59bc 9dd6 1ebe 1a87 803d
00000080: 0c6f b5bc beb2 2ebd 0836 f8bd a252 083d
00000090: a2ba 04be aa5f 09be d7cb e9bb 14ec 743d
000000a0: e0bf 5dbe 42a1 95be e212 1bbd a796 9cbd
000000b0: 05db debd b8f6 e1bd 80fa 2fbd 0a02 2bbc
000000c0: 9dfc 1c3e d1bd 163e c75a b03d 7dfd f43d
000000d0: 6193 a3bd 9a75 52bd 56de 113e 6beb 943d
000000e0: 53dc 1c3d e12a 63bb 562a bd3d 310b bb3d
000000f0: 5262 033e 042d bfbd 5b56 90bc 3c2c d7bd
00000100: 3a71 173c 2a61 46be 8c52 4e3e ff61 85be
00000110: 96a0 35be 1a54 92bc 2d4d 89bd a611 ff3c
00000120: f008 103e 8708 78bc 9666 35be 8cbb 65bd
00000130: a4ad 1c39 c636 c83b 76e4 213e cef7 fd3d
00000140: 4ff6 0fbd 4ab3 01be c344 8abd e6c4 053e
00000150: 8832 f0bd 9f00 01bd 0632 c13d 69ce 80bd
00000160: d567 1dbe e6b5 913d 0ba2 dfbd 8440 f8bb
00000170: 1fa1 933c 4e7a ce3c 6327 e5bd d41b fdbd
00000180: a43d a93d d617 81bd a5a3 66bd da7a ba3d
00000190: 43fa ae3c b544 ab3c f725 56bc dbfe bdbd
000001a0: e674 ebbd b156 bfbd 9d45 13be 6d8b c13c
000001b0: 054b c4bd fbfe 79bb 2e4f 193e ec07 9abc
000001c0: e364 57bd 1d15 083e a117 27bd c2f7 eebd
000001d0: 4e4a 2c3d bd39 453e cb6d 353d 76c5 98bc
000001e0: b5d0 383d 7738 303d 1b31 483b b810 223e
000001f0: 8ca7 823d 45ff febd e282 a83d fef3 89bb
00000200: 7090 6c3d 96d4 5e3d 8320 8f3d 6c3f 69bb
00000210: 3e7c 963d e683 eabd 9fad 7ebd 8506 7bbc
00000220: b88a fa3a aaac 953d e480 c6bd 09db 9bbd
00000230: 6baf b73d be99 7dbd 56a2 babd 1230 eb3d
00000240: 35fe f53d e16f c7bc 63f5 80bd e7cf fa3d
00000250: b3f0 75bd 888e 943d f015 dabd 1135 47bd
00000260: d3b2 fcbd 6822 173d 2460 6a3d 9ccc df3b
00000270: 970a 18bd 3650 cc3a e75e 06be 8ddb 4b3e
00000280: a23e 92bc 5854 17bd cb74 123e 5272 273e
00000290: 3843 093e 6928 7b3c 3b34 5bbd 3c43 0bbe
000002a0: 5027 3cbd 11f8 823d 7cbc 123e 84ea 15bd
000002b0: db0d 4d3d 49eb 923d 76d2 81bd 98d7 33bd
000002c0: 0907 f73d 58b5 65bd a2be f6bc e31c b03a
000002d0: c6a6 0bbd 0fc3 5dbd e33d a7bd 290c 833d
000002e0: 3d5c 66bd aae3 1ebe 759b 863d 747c 2dbd
000002f0: 2fc6 893c cb43 193e a828 2539 9446 c8bd
00000300: 4387 053e 6e09 dfbc c3f3 05be 89c4 303e
00000310: 94de dc3d e342 2dbe ccf8 3d3d bae7 123d
00000320: 3b76 f93d dc0e fbbc 7d42 4dbc e786 823c
00000330: ad06 303e 1b90 b03b 38ee bebd de3f debd
00000340: f16e ef3a d5ff d9bc fa81 023e 0259 843d
00000350: e9cf 103e 9e6d 373e c5df cbbd e79b 8d3b
00000360: 1957 09bc bfd4 2ebc c691 ac3c 9823 52bd
00000370: 1e85 843d 5977 85bc 8dce f3bd 1a02 953c
00000380: 3044 723d 600e d0bb f567 6abd ccd0 e6bd
00000390: df97 c03d 1d5b c0bd 7cfb 9f3c 7607 1dbc
000003a0: 5e7a b5bd 5ad5 62bd 5ac0 51bd 81d4 e33b
000003b0: 3896 d7bd e49e 403d a775 90bd fe43 adbe
000003c0: c112 053e d4e8 9e3d 7fab c1bd 6fb5 e23c
000003d0: 63b7 ebbd 9a71 9fbe 8ddc 5f3d 56ae eebd
000003e0: 2400 0cbe 8414 f6bd 945f 25be e025 17bd
000003f0: 669e 4f3d 32ac e1bd 74c6 d5bd b972 bbbd
0.12283835 0.08346048 0.11809092 0.030390998 0.098598264 0.14193323 0.0024287438 -0.05120908
-0.022650413 -0.18728125 0.077200554 0.10219571 0.006874038 -0.09269362 0.08031863 -0.06826837
-0.11803183 0.1264428 -0.051082086 -0.07730924 -0.07082581 0.15356971 0.013590865 -0.14376472
-0.16597435 0.06523526 0.038852207 -0.07990352 0.11705538 -0.013264401 -0.15511556 0.062757686
-0.022147678 -0.04265093 -0.12119681 0.03328193 -0.1296182 -0.13415399 -0.0071348953 0.059795454
-0.21655226 -0.29224592 -0.037859805 -0.07645922 -0.108816184 -0.11033386 -0.042963505 -0.010437498
0.1533074 0.14720847 0.086110644 0.119624116 -0.07987095 -0.051381685 0.1424497 0.07271465
0.038296055 -0.003466301 0.092365906 0.09132994 0.12830475 -0.09334758 -0.017619302 -0.10506484
0.009243304 -0.19373003 0.20148677 -0.26051328 -0.1773704 -0.017862368 -0.06704173 0.031136345
0.1406591 -0.015138752 -0.17714915 -0.05608706 0.00014942006 0.006110045 0.15809807 0.124007806
-0.035147008 -0.1266605 -0.067513965 0.13063392 -0.11728388 -0.031494733 0.09433369 -0.062893696
-0.1537164 0.071147725 -0.10919579 -0.0075760502 0.018021164 0.025204804 -0.11189153 -0.123588234
0.0826371 -0.063033745 -0.056308407 0.09105463 0.021359568 0.020906786 -0.013070575 -0.092771254
-0.11496906 -0.09342707 -0.14382024 0.023626054 -0.09584621 -0.0038146365 0.14971611 -0.018802606
-0.052586447 0.13289304 -0.04079402 -0.1166835 0.04206305 0.19260307 0.04429416 -0.018648844
0.045120914 0.0430226 0.0030546847 0.1582669 0.06379613 -0.124510325 0.08228089 -0.0042099943
0.057754934 0.054401956 0.06988623 -0.003559078 0.07347916 -0.11450939 -0.062177297 -0.015321379
0.0019114828 0.07308324 -0.09692553 -0.07610137 0.08969005 -0.061914198 -0.091129944 0.11483778
0.12011377 -0.02434534 -0.06296804 0.122466855 -0.060044 0.07253748 -0.106487155 -0.048634592
-0.123387955 0.036898047 0.057220593 0.0068298113 -0.037119474 0.001558787 -0.1312214 0.1990797
-0.017852131 -0.03694567 0.14302365 0.16352203 0.13404548 0.015329459 -0.053516608 -0.13599867
-0.04593593 0.06394971 0.14329714 -0.036600605 0.05006204 0.07173783 -0.0633897 -0.043906778
0.12061889 -0.056081146 -0.030120198 0.0013436343 -0.034094594 -0.0541411 -0.08166101 0.06398804
-0.05624031 -0.15516534 0.0657262 -0.042355016 0.016818134 0.14967267 0.00015750772 -0.09779087
0.1303988 -0.027226176 -0.13081269 0.17262472 0.10784641 -0.16920047 0.04637985 0.035865523
0.12180754 -0.030646734 -0.012528059 0.015933467 0.17190047 0.0053882725 -0.0932278 -0.108520254
0.0018267316 -0.026611248 0.12744895 0.064622894 0.14141811 0.1791291 -0.0995479 0.0043215635
-0.008382582 -0.01067084 0.021065604 -0.051303476 0.064707026 -0.016292261 -0.11904631 0.018189479
0.05914706 -0.00634937 -0.057228047 -0.112702936 0.09403967 -0.093923785 0.019529097 -0.009584298
-0.0886123 -0.05537925 -0.05120883 0.0069528227 -0.10526699 0.04702653 -0.070536904 -0.33840936
0.12995435 0.07759252 -0.094565384 0.027674405 -0.115095876 -0.3114136 0.054653693 -0.11654346
-0.13671929 -0.12015632 -0.16149741 -0.036901355 0.05068817 -0.11019172 -0.104382426 -0.09152741

conv2.bias f4 [64]
00000000: f7aa fa3c c15c 57bb 82e1 04bd 5456 d93c
00000010: f217 c3bd 71c3 473d 5f04 aebd d37d 353c
00000020: 2117 8d3d 278b 2f3d c9e3 e23a 3e63 09be
00000030: a02d e8bc 1e14 013d ac29 25bd e079 b6bc
00000040: c110 64bd 7af0 4f3d a543 7cbc 69bb 1cbd
00000050: bc05 06bd 021b 0cbd 98d4 0bbd 6dfa a0bc
00000060: 8022 b1bd 02b7 b5bd 356c 68bd 1ae4 11bd
00000070: 74a1 b2bd 269c 293e 2c47 74bd 1ff5 f9bd
00000080: c2bd 963d 1af1 1d3d 70c3 2c3d 3f42 fabc
00000090: 4222 383d 2b8f 49bc 3c67 c6bc d8bd 403c
000000a0: 34ca 8bbc e036 943c 8183 56bd b110 80ba
000000b0: 1072 40bd 44cd 09be 1ec3 f0bc 2076 47bd
000000c0: 9172 58ba 365d c03c 5e22 fb3d bb90 3ebd
000000d0: 5337 e03c aca3 f9bd d496 bfbd e7dc 05be
000000e0: dea6 a6bd 2cc1 7fbd 50dc 07be d131 43bc
000000f0: 71cf 34bd fca1 cebd 03ad 46bd b75c 073c
0.0305991 -0.0032861682 -0.032441624 0.026530422 -0.095260516 0.04877037 -0.084969275 0.011077362
0.06889177 0.042857315 0.0017310317 -0.13416764 -0.028342068 0.031513326 -0.040322945 -0.022274911
-0.05568004 0.050766446 -0.015396987 -0.038264666 -0.032720312 -0.034205444 -0.034138292 -0.019650662
-0.086491585 -0.088727966 -0.05674382 -0.035617925 -0.08722201 0.16563472 -0.059638187 -0.12204956
0.07360412 0.03856001 0.04217857 -0.030549167 0.044954546 -0.0123022 -0.024219148 0.011764012
-0.017064191 0.018092573 -0.052371506 -0.00097706 -0.04698378 -0.13457209 -0.029389914 -0.048696637
-0.0008256818 0.023481946 0.122624144 -0.046524744 0.02737013 -0.12189421 -0.0935494 -0.13072549
-0.08137296 -0.062440082 -0.13267636 -0.011913733 -0.044143144 -0.1008949 -0.04850484 0.008261851

bn2.weight f4 [64]
00000000: d864 413f 698c 563f f15a 753f 0d73 5f3f
00000010: f627 6c3f c771 5f3f 203a 8d3f 2e04 703f
00000020: 213b 753f 4866 843f 9b06 6e3f c417 2d3f
00000030: 76e5 743f 8570 613f 43a0 8c3f a7f8 9f3f
00000040: b5c5 573f 5e44 8e3f c755 783f 1335 3d3f
00000050: 286a 383f 5bed 973f e3ed 613f a7ba ac3f
00000060: a7ec 8c3f 71a1 3b3f cbce 433f 2b28 493f
00000070: 8dd4 8a3f dd5c 943f 1703 433f 47e2 a93f
00000080: 6933 9a3f 488b 6d3f 4b15 5d3f 230d 753f
00000090: d2a6 623f cccf 7f3f f250 813f 5313 443f
000000a0: 8419 a33f 39df 543f ebc8 8f3f afb3 803f
000000b0: 2b6d 583f a2bc 883f 5d4f 723f ca4e 5a3f
000000c0: 530a 903f 7e2c 5c3f 7a97 8a3f d9a9 3b3f
000000d0: 251f 373f a04e 9b3f 7870 563f 1e28 793f
000000e0: 52b5 343f b87d 673f 961c 423f 9f0b 783f
000000f0: aa7c 6e3f 647f 683f 2609 833f ea9f 933f
0.755445 0.83808 0.9584189 0.8728493 0.92248476 0.87282985 1.1033363 0.9375638
0.9579335 1.0343714 0.9297883 0.6761439 0.9566263 0.88062316 1.0986408 1.2497758
0.8428605 1.1114614 0.97005886 0.7390911 0.7203698 1.186931 0.8825361 1.3494462
1.100972 0.73293215 0.76487416 0.78576916 1.0846115 1.159084 0.7617659 1.3272179
1.2046939 0.9279065 0.86360615 0.9572317 0.885358 0.9992645 1.0102828 0.76591986
1.2742162 0.8315311 1.123319 1.0054835 0.8454158 1.0682566 0.9465235 0.8527647
1.1253151 0.8600539 1.0827477 0.7330604 0.715319 1.213337 0.83765364 0.9732684
0.7058917 0.90426207 0.7582487 0.9689273 0.9315897 0.9081938 1.0237167 1.1533177

bn2.bias f4 [64]
00000000: 36c0 cdbe b427 29bf b51c 15bf f42f ffbe
00000010: 81ff a0be 8ef2 98be ab67 b3be 9f80 adbe
00000020: 36e0 07bf 735f a9be 45ce c9be d058 94be
00000030: aba1 22bf 4dd7 30be 9cad 1fbf 29ea cfbe
00000040: bfc7 f0bd 98cc d7be 2f63 dbbe c943 40be
00000050: f5ad 90be 767d f0be 32bb 38bf bf2d 9bbe
00000060: a5cc c4be 4018 2fbf 4b18 f4be e3f3 92be
00000070: 153f 02bf 564e 5ebe 4051 a6be e70e 7dbe
00000080: 4fae a1be 5ae7 d0be b4f8 b6be f339 a1be
00000090: 13bb b7be 9b02 11bf b015 b4be 4ed4 bebe
000000a0: 14f3 1abf 39ad 83be 9150 e1be 28d4 a2be
000000b0: 4cda f0be 390a 24bf a58d 99be a0d4 c7be
000000c0: d544 89be 46b6 18bf 9d72 f7be a0a1 58be
000000d0: 75fc b6be 9e93 edbe 1394 03bf 0033 94be
000000e0: 3f49 d1be 4865 bdbe 41c3 c7be b346 edbe
000000f0: 1f78 eebe 28e6 bdbe f668 c4be 0f1d ddbe
-0.40185708 -0.6607621 -0.5824693 -0.49841273 -0.31444934 -0.29872555 -0.3504003 -0.33887193
-0.53076494 -0.33080634 -0.39415184 -0.2897401 -0.63527936 -0.1726963 -0.6237428 -0.40608338
-0.117568485 -0.4214828 -0.4284911 -0.18775858 -0.2825772 -0.4697072 -0.7216064 -0.3030834
-0.3843738 -0.6839638 -0.47674784 -0.28701696 -0.50877506 -0.2170957 -0.32483864 -0.24712716
-0.315783 -0.40801507 -0.3573662 -0.31489524 -0.35884914 -0.566446 -0.35172796 -0.3727135
-0.6052716 -0.25718096 -0.4400678 -0.31802487 -0.47041547 -0.640781 -0.2999088 -0.39029408
-0.26810327 -0.5965313 -0.4832963 -0.21155405 -0.35739484 -0.46401685 -0.5139782 -0.2894516
-0.40876195 -0.36991334 -0.39016154 -0.46343002 -0.4657602 -0.37089658 -0.3836133 -0.43186232

bn2.running_mean f4 [64]
00000000: a16d 83bf 7ce7 0fc0 db93 463f ce58 99bf
00000010: db89 cbbf 985a 753f 6151 1dc0 8715 1abf
00000020: b57d 623f 64d1 bcbf 3cd4 1d3e d34b 2440
00000030: 63d1 3fc0 f690 86bf 2643 9b3e 7e24 723c
00000040: 7267 84be 0224 c0bf 902a e4bf 7c30 d8bf
00000050: 5282 d4be b8dd 0ac0 4c3c 8abe 80a1 a6bf
00000060: 818d 87be 13c2 243f 1fd0 62bf 845b fabf
00000070: 4393 41bf 875f fcbe 34f3 2fbe c883 acbf
00000080: 5868 80bf f623 41be 055a 253e 22c9 09c0
00000090: 9cf2 87bf 2ef7 11c0 2074 5ebf 6605 a4bf
000000a0: 78b9 3c3d d1fe 1ac0 cd9a b5be 7950 80be
000000b0: 9bcd ea3f c8e1 67bf c038 263f b788 8cbf
000000c0: fbeb 89bf 7057 51be a251 a8bf 5031 a7bf
000000d0: eab9 a8bf b69d 29c0 74ec febf 410b 41c0
000000e0: c849 0cc0 2e17 6b3f ea18 bbbf f025 f5bf
000000f0: ca3f afbf 500a 84bf 0f40 08c0 e754 f7bf
-1.0267831 -2.2485037 0.7756936 -1.1980226 -1.5901445 0.9584136 -2.458092 -0.601891
0.88473064 -1.4751401 0.15412992 2.567128 -2.997155 -1.0512989 0.30324668 0.014779208
-0.25860173 -1.5010989 -1.7825489 -1.6889796 -0.41505677 -2.1697826 -0.26999128 -1.3018036
-0.26475146 0.64358634 -0.8859882 -1.9559178 -0.7561533 -0.49291632 -0.17182618 -1.3477716
-1.0031843 -0.18861374 0.16147621 -2.1529012 -1.0620914 -2.2807117 -0.8689594 -1.2814147
0.046075314 -2.4218028 -0.35469666 -0.25061396 1.8343996 -0.9057889 0.64930344 -1.0979222
-1.077514 -0.20443511 -1.3149912 -1.3061924 -1.3181736 -2.650251 -1.991591 -3.016312
-2.1920033 0.91832244 -1.4616978 -1.9152203 -1.3691342 -1.0315647 -2.1289098 -1.9322785

bn2.running_var f4 [64]
00000000: bd52 a040 182a b840 eeef 8f40 27d4 7a40
00000010: 37bd ad40 32b5 d440 64d2 8b40 85b6 7940
00000020: 0850 b340 479d cf40 ad11 db40 99f1 dd40
00000030: abb3 3b40 a2ae 1f41 b382 ee40 1344 a740
00000040: fa42 4840 c9ea be40 9928 2b41 2e57 0841
00000050: 2651 cb40 09ff c540 09b9 4a40 497a cc40
00000060: c835 0441 1d06 5b40 aa7f 6f40 1b65 a340
00000070: f340 8c40 2aba 4540 71cb c140 5d0d 1a41
00000080: be8e cd40 33b4 4940 f615 c740 564e d440
00000090: ac7c 9340 7f39 dc40 80d7 2841 522b 9940
000000a0: 5887 8f40 3aa5 1241 7896 4e40 f07e 0441
000000b0: 9fcc 7740 4a73 8240 9175 9c40 abf6 f040
000000c0: d9d3 d040 46ce 7940 a153 b140 5925 9040
000000d0: 74d7 9840 3ff1 da40 3942 4e40 87f0 f340
000000e0: 6e41 b240 b03c c540 905e ea40 b96d 1041
000000f0: fa9d cd40 1fa5 ab40 aff5 e640 a4a4 0f41
5.0101 5.7551384 4.4980383 3.9191988 5.4293475 6.6471186 4.3694324 3.901765
5.6035194 6.487949 6.8459077 6.935742 2.932841 9.980135 7.4534545 5.22706
3.129088 5.9661603 10.697412 8.521284 6.353656 6.187382 3.1675436 6.3899274
8.26313 3.4222481 3.742167 5.106092 4.3829284 3.0894876 6.056084 9.6282625
6.4236746 3.1516235 6.221431 6.6345625 4.6089687 6.8820186 10.552612 4.786538
4.4852715 9.1653385 3.227934 8.280991 3.871864 4.0765734 4.8893514 7.530111
6.5258603 3.903215 5.5414586 4.504559 4.7763004 6.841949 3.222792 7.6231112
5.570487 6.163658 7.3240433 9.026788 6.4255342 5.3639064 7.2174907 8.977695

conv3.weight f4 [128, 64, 3, 3]
00000000: ba4a a3bb 235a 0e3e ef53 42bd 1614 81bc
00000010: 7a5c 65bd 1fc0 2a3d b5a6 15bb b1ae a2bc
00000020: 9d77 8a3d ba04 f1bb f663 99bd 8e88 1fbe
00000030: bb4a b13d f261 86bd 5d1a b9bd f9be d13d
00000040: 3761 6a3c a2cb e43d 2788 e03d f44c 8a3a
00000050: 4ce6 823d 2337 e23d 60d6 1b3d 27c9 133e
00000060: 3489 8abb 6178 eebd 8692 b33d 1ae8 3bbd
00000070: 00c5 d7bc 8d81 71bd 297d b0bd a38c 00be
00000080: c444 1ebd 8750 2ebe e528 11bd 797a 713d
00000090: e2f9 1abd a840 02be 845c 83bb a040 523d
000000a0: b7da 4d3c 901e d13d 9116 873e 2e30 78bc
000000b0: e708 fdbd 0efe 713b 3653 663d 23fe f7bc
000000c0: cc88 f5bb e98d ae3c 849b 6d3d 1b6c 2d3e
000000d0: 5f0b 793d f820 f7bd 9e05 3e3e 96d6 033d
000000e0: d4bd 38bd 341f 8b3c 2cd0 78bd 70fe e83d
000000f0: 6ceb 89bc 4434 90bd 0f2c 953d 6db3 573c
00000100: 92c3 233e 68ac 33bc 9680 cc3d 3485 853b
00000110: 5c22 893b 5e0e 1e3e c74a 053e 576f 803d
00000120: e40c 653d b668 633c 2818 943d 0807 f03d
00000130: abaf 043e 114e 423d e62f f93d 8ee8 b7bd
00000140: 8a0c 9fba 4f45 bfbc 7cfe 9bbd 70b5 1e3d
00000150: 9966 29be db50 593c c6f7 ed3d e705 9fbd
00000160: d21f 1abe e979 8c3d 3b91 e33b be3a 643d
00000170: 2683 a13c e4a1 d13b 2147 52bd a3eb 6b3d
00000180: 56e6 cbbc 6eaf 743a 31e5 9fbd 6b3f af3d
00000190: 685e 62bd 17b6 6fbd b79b a2bd be74 6a3c
000001a0: bb67 143d 7de2 e53c 664d 883d 6559 983d
000001b0: c545 b7bc 298c a5bd 9f21 fbbd 2ce6 41be
000001c0: 4d44 233b 20f2 ae3c ad99 98bd aa2b 1a3d
000001d0: 9394 173e afdc 00be 4dfe 8abd 0323 d53d
000001e0: dfe2 143c 8a8f 02bd e353 d13b ca35 903d
000001f0: c9cd 7bbd 2d45 14be 2e04 5c3e cc12 693e
00000200: ec5b 153e 1454 5c3d c5c1 43bd 7a92 9c3d
00000210: a918 0bbe 3934 08be 8097 d4bc 47a8 903c
00000220: 03db ba3c 0f0b 25bd a7ed 973d d60c 80bc
00000230: da19 bbbd bd5d 2a3c da17 133e 01ad c33d
00000240: 64ef 143c 3bbf e1bb d65e 733d 74ab 143e
00000250: 6f6a a5bd 927c 573c 1b58 74bd a599 a93c
00000260: f954 38bd 690a 2abd ce40 3cbc aab9 6cbd
00000270: a3b4 c73d 6e18 8ebd ba13 563c 087f 5a3e
00000280: 6a14 703d f0c6 cd3b 4f3d fe3d ae66 123e
00000290: dc4e d43d 13dd 2ebd 9834 443d e1ec 643d
000002a0: 9e65 b63c f2ec a43d 6aaa 853d 1dd8 3f3d
000002b0: 3a02 c33d fc46 47bb 6283 d23c a0f0 403d
000002c0: cea9 55bd af35 65bd 966b 33be cdc5 ea3b
000002d0: 6c67 b73d f4d2 173d f2c2 32be fdc6 623d
000002e0: 7569 08bd 4c05 13bc fd0a ba3c 0b63 433d
000002f0: 21ef 653c 71f4 38bd b2f8 e13d 3187 c53d
00000300: ecbd 9e3d 7d0d 2c3d 23f5 d13d d75b 03bd
00000310: 8e3c 4abe 4d36 86bd fd94 f93d 9d5e aebb
00000320: a806 5dbd e835 c2bc 29f2 bfbd e8c5 b73d
00000330: c946 44be f9f7 7fbe de0e 49bd 30c1 d33c
00000340: 142d d83d fe7c d13b 3588 4e3b 5ae5 cf3c
00000350: bbda 87bd 34d5 bc3d 4c0a 8bbc bc20 763c
00000360: ebd4 a4bd f8c7 05be d572 203d 0fdc e33c
00000370: 909f 86bd 9767 98bd 83e2 da3c 4b7f 9dbd
00000380: 72f4 223d 84e1 c5bd 17e3 f8bd c571 44be
00000390: 3fab 86bd f48f 36be d8b4 57bd ef19 8abd
000003a0: 0a1e a8bb da35 ebbd 8466 f43c 6eff 33bd
000003b0: 53cd bc3d 2012 c4bd 6c7a 1abe 9ab5 6d3d
000003c0: 5314 ecbd b0c9 1bba fc9d 0a3e 5db2 4b3d
000003d0: 409f a3bb 6e0a 173e 912e 5f3d eb9d 0f3e
000003e0: e439 333e 6df9 ff3d b513 4e3d 6795 c1bd
000003f0: 7346 ca3d 5ae3 13bc 2ea2 11be 3d4b de3d
-0.0049832733 0.13901572 -0.047443327 -0.015756648 -0.055996396 0.041687127 -0.002283496 -0.01985869
0.06761096 -0.0073553 -0.07489769 -0.15579435 0.08656832 -0.0656165 -0.090382315 0.10241503
0.014305404 0.111716524 0.10963469 0.0010551498 0.06391582 0.11045673 0.03804624 0.14432202
-0.0042277817 -0.11644054 0.087681815 -0.045875646 -0.026339054 -0.05896144 -0.086176224 -0.12553649
-0.0386398 -0.17022906 -0.03543939 0.05895469 -0.037835963 -0.12719977 -0.0040088315 0.051331162
0.012564353 0.102109075 0.26384404 -0.015148206 -0.123552136 0.003692511 0.0562317 -0.030272549
-0.007493114 0.021307902 0.05800964 0.1693577 0.06080186 -0.12066835 0.1855683 0.032187067
-0.04510291 0.016982652 -0.060745403 0.11376655 -0.01683589 -0.07041219 0.07283794 0.013165337
0.15992573 -0.010966398 0.09985463 0.004074717 0.004185004 0.15435168 0.13016807 0.062712364
0.055920497 0.0138799455 0.0723117 0.11720091 0.12957637 0.04743773 0.12167339 -0.08979903
-0.0012134474 -0.023348479 -0.076168984 0.03874725 -0.16543044 0.013263906 0.11619525 -0.07764798
-0.15051201 0.0685919 0.006944803 0.055720083 0.019715857 0.0063974727 -0.051337365 0.057597768
-0.024890106 0.00093340024 -0.07807387 0.08557018 -0.055265814 -0.058523264 -0.079398565 0.01431006
0.036231738 0.0280621 0.066553876 0.07438926 -0.022372136 -0.08083374 -0.12262272 -0.1893546
0.0024912537 0.021355689 -0.07451186 0.037639298 0.1480277 -0.12584184 -0.06786785 0.104070686
0.009087293 -0.03187517 0.006388174 0.070415094 -0.06147555 -0.14479513 0.2148597 0.22761077
0.14585847 0.05379112 -0.047792215 0.07645126 -0.13583626 -0.13301171 -0.025951147 0.017658366
0.022809511 -0.04029375 0.074183755 -0.01563112 -0.0913579 0.0103983255 0.14364567 0.09554482
0.009090278 -0.0068892515 0.059416614 0.14518529 -0.08076941 0.0131522585 -0.059654336 0.020703146
-0.04500291 -0.041513834 -0.01149006 -0.05779425 0.097512506 -0.06938253 0.013066227 0.21337521
0.05861322 0.0062798187 0.124140374 0.14296982 0.10366604 -0.0426913 0.04790172 0.055889968
0.022265252 0.08053006 0.065266445 0.04683696 0.09521909 -0.00304073 0.025697414 0.047104478
-0.05216389 -0.0559594 -0.1752151 0.007164693 0.08955273 0.037066415 -0.17457178 0.05536555
-0.033303697 -0.008973431 0.022710318 0.047701877 0.014034064 -0.045154992 0.11033763 0.09644926
0.077510685 0.04200505 0.10251834 -0.032070007 -0.19749662 -0.06553326 0.121866204 -0.0053213374
-0.053961426 -0.023707345 -0.0937236 0.089732945 -0.19167627 -0.24996938 -0.049086444 0.025848955
0.10555473 0.006393074 0.0031514291 0.025377918 -0.066335164 0.09220353 -0.016972683 0.015022453
-0.080484234 -0.13064563 0.039172012 0.027814893 -0.06573403 -0.07441633 0.026719337 -0.07690295
0.039783902 -0.09662154 -0.12152689 -0.19184025 -0.06575631 -0.17828351 -0.0526627 -0.06743228
-0.005130534 -0.11484881 0.02983404 -0.04394477 0.0921885 -0.095737696 -0.15085763 0.058034517
-0.11527314 -0.00059428345 0.13536829 0.049730647 -0.0049933493 0.14750072 0.05448777 0.14025085
0.17502552 0.12498746 0.050311763 -0.09452324 0.09876718 -0.009026373 -0.14222023 0.10854194

conv3.bias f4 [128]
00000000: 3834 bb3c 58e8 063d 66f8 d93a 313e 123d
00000010: 71c9 b23c 702d ae3c 825b 093d 74bd 9bbc
00000020: 9a3f b83c d4d7 613b 2009 1ebd 3cd0 f93a
00000030: 7e0e 38bd 2fe8 1fbd 2258 6ebc 47d1 7dbc
00000040: bdff 7dbc 1bf9 8ebc ee25 11bc 21b4 8bbb
00000050: b428 443b 4be3 da3c 3fda 0d3d 8571 09bd
00000060: aa8f 1cbc 0ef1 abbb e29a 6cbb acd9 e03a
00000070: f70b 933c 01a0 233d c847 6b3c 931a d1ba
00000080: bfe2 993c 2ca3 81bc 81a8 c73b 4be1 1d3d
00000090: 83e7 e6bc f2a3 58ba bdeb 01bd 10f0 ef3c
000000a0: cae4 8f3c f76a 8cbc 997a b33c 124d 1e3d
000000b0: 0798 ec3c 4ffd 293a 1b96 dd3b b05b ed3c
000000c0: 8c52 2dbd e655 f7bb 4678 b63c 97fa 903c
000000d0: 85ea 01bd d560 d93b dfc9 f83c 0a56 01bd
000000e0: 887a e3bc 4bba f5bc d08f 3a3d 7993 a73c
000000f0: c45e d23b ffa3 053c e728 d6bc ce13 043d
00000100: 961e 0fbc 31e4 31bc ad0a c23c c1b2 fb3c
00000110: 5f0e 2e3c 763f ec3c 8b41 ae3b f8e5 d4bc
00000120: 9115 603a b18e 00bd e3db 093d 0822 14bc
00000130: cbcb c43b cdf5 683c 101f b8bc 455a 9fbc
00000140: c1e5 713c f533 0fbd ca51 35bb 0748 cf3c
00000150: 37ee 6ebb 7b49 253c 75fb 11bd ac5d d13c
00000160: 05d7 e43a 295f 25bd e9ec 0e3c bc5d d2bc
00000170: 4355 ecbc 0328 683c c8fe 0c3c 3cbb 093d
00000180: d6ca 2cbb e207 5e3c 9b6d 733c 7cd4 413c
00000190: fdb1 fa3c 4f8f 473c 637e 033d ff23 e73c
000001a0: ecb5 a2bc 4a24 13bd ddbf d93c 2539 84bc
000001b0: 01ea 71bc 602a 12bd 1ea3 19bd 8b08 223d
000001c0: 3ba1 6e3c a586 09bd 0c01 1fbb 52da ebbc
000001d0: 5685 f13b a506 12bb 4d44 803a ba90 2d3c
000001e0: fed8 b93b 2abf 63bc a1ac 82bc febe 213d
000001f0: ee24 9a3c ba6a 21bd e431 063c 1d7b 97bc
0.022852048 0.032936424 0.0016629815 0.03570384 0.02182457 0.0212619 0.033534534 -0.019011237
0.022491265 0.003446092 -0.03858292 0.0019059251 -0.044935696 -0.039039787 -0.01454738 -0.01549179
-0.015502867 -0.017452767 -0.008859141 -0.0042634164 0.0029931488 0.02671971 0.034631964 -0.033555526
-0.009555737 -0.005247242 -0.003610306 0.0017154715 0.017950041 0.039947513 0.014360376 -0.0015953354
0.018784879 -0.015824877 0.0060930853 0.038544934 -0.028186565 -0.0008264176 -0.03171896 0.029289275
0.01756515 -0.017140849 0.021909045 0.03864772 0.028881086 0.00064845843 0.0067622787 0.028974384
-0.04231505 -0.0075480817 0.022274148 0.017697616 -0.031717796 0.0066338577 0.030369697 -0.031576194
-0.027768388 -0.029996058 0.045547307 0.020456063 0.0064199883 0.0081567755 -0.02614255 0.03224545
-0.00873532 -0.010857628 0.023686731 0.030724885 0.0106235435 0.028838854 0.005317872 -0.025988564
0.00085481355 -0.03138608 0.033656966 -0.009041317 0.0060057393 0.01421876 -0.02247575 -0.019452224
0.01476425 -0.03496166 -0.0027667158 0.0253029 -0.0036457905 0.01008832 -0.0356402 0.025557362
0.00174591 -0.040373955 0.008723476 -0.025679462 -0.02884925 0.014169696 0.008605666 0.033625826
-0.0026366017 0.013551684 0.014857675 0.011830445 0.03060245 0.0121801635 0.032102954 0.028215406
-0.019862138 -0.03592328 0.026580745 -0.01614053 -0.014765264 -0.035684943 -0.037509076 0.03955893
0.0145648075 -0.033575673 -0.0024262099 -0.028790627 0.007370631 -0.0022281792 0.000978598 0.0105935875
0.0056716194 -0.0139005575 -0.015951457 0.039488785 0.018816438 -0.039408423 0.008190606 -0.018491322

bn3.weight f4 [128]
00000000: a577 ba3f bd17 a73f 27a8 aa3f d4a6 aa3f
00000010: 4f98 a33f 86f4 a63f c0ac a73f c968 a23f
00000020: 56d7 993f 068f a73f 5ae6 9c3f fe2a a03f
00000030: 0dc5 a73f 3f79 9c3f 08cf 9f3f 53f3 a63f
00000040: 1592 963f 465e a43f 9a44 a03f 66bd b63f
00000050: b203 963f 4789 a13f ff09 9f3f b457 9d3f
00000060: 54c8 9d3f 5065 ad3f 3ae2 993f dd72 bc3f
00000070: aff4 9c3f 8003 a13f 7003 a83f 6a2f 933f
00000080: 65a4 a03f 4277 9f3f 0dd0 9f3f ff9e a23f
00000090: f5ab 943f a5f0 9c3f 4701 9c3f a0d6 a63f
000000a0: 6666 9e3f 318f bc3f b93c a23f 8cfa 943f
000000b0: efa4 aa3f 3bcc a23f af6e a63f b445 9e3f
000000c0: 81a7 a43f 4d16 983f 5802 9f3f 4a97 a33f
000000d0: e8fb ab3f 1ee8 ad3f 3a3e 9d3f 3fe5 ac3f
000000e0: 7a38 9f3f 0ab9 993f f112 ac3f 431c ac3f
000000f0: 1038 a53f 75c2 a33f 88a8 913f 0d55 a83f
00000100: d475 ae3f 5395 a43f df47 b03f 507f ae3f
00000110: e321 8e3f bf73 ac3f 4b89 983f 95c8 a33f
00000120: 5c50 a63f 459b a03f be6f b33f 9811 9e3f
00000130: 088a 993f 7ecc aa3f e28f a23f 5b81 9e3f
00000140: dd6e a43f 5fbc a33f c7d5 aa3f d064 a73f
00000150: 17c3 b13f 8b55 a83f 0574 923f 9b71 9d3f
00000160: 91ed 9d3f 9ad9 9f3f 4855 a23f e3e3 9b3f
00000170: 0a9b b13f 7451 9b3f 6139 9b3f f6c2 b23f
00000180: 69e8 903f 9b75 ab3f f63a a43f 2ca3 9f3f
00000190: 5572 9c3f 00fa 923f fa91 9d3f 5e9d a13f
000001a0: 0447 b53f eacc 8f3f c095 9e3f 6b11 a13f
000001b0: 712e a53f 0cd4 9e3f 435b a83f 4ecd ad3f
000001c0: e620 9f3f 5d2a a23f 1697 ac3f e1fd ac3f
000001d0: bd05 ac3f 944b a43f f7ae ae3f 5437 a23f
000001e0: a48b 933f d20a ab3f 17c6 a03f 974a b93f
000001f0: 1318 a23f fc1b 9d3f 1ac9 a63f 7867 9b3f
1.4567763 1.3054119 1.3332566 1.3332162 1.2780856 1.3043373 1.3099594 1.2688228
1.201884 1.3090522 1.2257798 1.251312 1.310701 1.2224501 1.2485056 1.3043007
1.1763331 1.284127 1.2520936 1.427655 1.1719878 1.2620019 1.2424926 1.229239
1.232676 1.3546543 1.2022164 1.4722553 1.2262172 1.2579193 1.3126049 1.1498845
1.2550169 1.245827 1.2485367 1.2704772 1.1614977 1.2260939 1.218789 1.3034248
1.2375 1.4731199 1.2674781 1.1638961 1.3331584 1.2718576 1.3002528 1.2365022
1.2863618 1.1881806 1.242259 1.2780545 1.3436251 1.3586462 1.2284615 1.350746
1.243911 1.2009594 1.344328 1.3446125 1.2907734 1.2793719 1.1379557 1.3150955
1.3629708 1.285807 1.3771933 1.3632603 1.1104091 1.3472823 1.1916898 1.2795588
1.2993274 1.2547385 1.4018476 1.2349119 1.1995249 1.3343656 1.270016 1.2383226
1.2846333 1.2791861 1.334649 1.307764 1.3887662 1.3151106 1.1441656 1.2300295
1.2338125 1.2488282 1.2682276 1.217892 1.3875439 1.2134233 1.2126886 1.3965747
1.1320926 1.3395265 1.2830493 1.2471671 1.2222391 1.1482544 1.2310174 1.262615
1.4162297 1.123441 1.238945 1.258344 1.2904798 1.2408462 1.3152851 1.3578279
1.2431915 1.2669178 1.3483608 1.3514978 1.3439251 1.2835565 1.3647145 1.2673135
1.152699 1.3362677 1.2560452 1.4475888 1.2663597 1.2274165 1.3030121 1.2140951

bn3.bias f4 [128]
00000000: 831c 39be 5ae9 37be f950 a5bd dac1 4fbe
00000010: 89b7 97be 3780 28be a18d e5bd 022c 29be
00000020: 7be2 83be b47b 16be bd53 36be 7edb 49bc
00000030: a2ee 81be 4a6b 84bd 6950 2cbe 636b 04be
00000040: 6935 c4be 6322 a8be e8b8 b1be e03b 64be
00000050: 8dd1 c4be 16e2 89be 4e16 b2be 1237 a1be
00000060: e676 b0be 835d 45be 7189 a3be ddd6 f3bd
00000070: 80b5 2ebe 4e06 52be 023e c6be 1d86 3bbe
00000080: dc64 62be a272 76be 75de f9be 87f9 03bf
00000090: cec0 80be a502 60be c170 b3be e1c6 8bbe
000000a0: 3bf1 9ebe 104c f6bd 9ac3 afbe 558c 4cbe
000000b0: 6625 2fbe f8e8 7ebe 97c9 93be 2dd1 53bc
000000c0: 3120 08be 5282 c0be c912 debe 0127 38be
000000d0: b331 00be 93ec 76be e1fe 3cbe e12a 80be
000000e0: a45d 9cbe 0b25 5bbe a4e4 fcbd d8b9 a9be
000000f0: 4b12 87be 6e3e 3fbe fc1a 92be 9ac1 4ebe
00000100: 4e76 53be d340 95be bb8a bdbe 62ce 6dbe
00000110: 2ac8 8abe 0e3e 6dbe 5b54 97be e9da 38be
00000120: 99df 52be 7deb 45be 3780 86be 6634 8bbe
00000130: 9d2d 0fbe 6591 89be d370 26be 32f3 98be
00000140: 545d 53be 8852 c9be f8b8 34be b877 1dbe
00000150: 4f71 a1be 98a8 b9be 3645 b1be ff7b 6bbe
00000160: 704b ecbe b3e9 76be 8981 73be 5999 8abe
00000170: 25c5 58be e3f8 8abe 03cd b5be dc58 17be
00000180: cbd5 c2be 61ee 9ebe 40db 38be f2f7 61be
00000190: fce9 7dbe 1822 dfbe d50b 4fbe 1134 7fbe
000001a0: 0071 7bbe b7ec a8be d944 2cbe fdce b4be
000001b0: 009e 83be 573b b9bd 6f17 a2be 8c0a 51be
000001c0: c3c4 86be 3246 8ebe 9772 83be 47b4 68be
000001d0: 198a 8bbe 4ed7 37be f441 b5be c939 8bbd
000001e0: b4d4 86be b40f 85be a87f a0be eab8 9bbd
000001f0: 00e0 b1be 0382 b4be 431c 26be da8c c2be
-0.18077283 -0.1796011 -0.08072085 -0.20288792 -0.29632214 -0.1645516 -0.11208654 -0.16520694
-0.25758728 -0.14695626 -0.17805381 -0.012320397 -0.25377375 -0.06465776 -0.16827549 -0.1293159
-0.38322 -0.32838735 -0.34711385 -0.22288465 -0.38441125 -0.26930302 -0.34782642 -0.31487328
-0.34465712 -0.19273953 -0.31940797 -0.11906216 -0.17061424 -0.20510218 -0.38719183 -0.18312879
-0.22108787 -0.24067166 -0.48802534 -0.51552624 -0.25147098 -0.21876009 -0.35046962 -0.2730017
-0.3104342 -0.120262265 -0.3432892 -0.19975407 -0.1710411 -0.24893558 -0.28864738 -0.012928289
-0.1329353 -0.37599427 -0.43373707 -0.17983629 -0.12518959 -0.24113683 -0.18456604 -0.25032714
-0.30540192 -0.2140085 -0.12348297 -0.331496 -0.26381144 -0.18676159 -0.28536212 -0.2019104
-0.20650598 -0.2915102 -0.37019905 -0.2322326 -0.27105838 -0.23168203 -0.29556546 -0.18052258
-0.20593108 -0.19328113 -0.26269695 -0.27188414 -0.13982244 -0.2686874 -0.16253977 -0.29873043
-0.2064107 -0.3932078 -0.17648685 -0.153777 -0.3153176 -0.3626144 -0.34623116 -0.2299652
-0.46151304 -0.24112587 -0.23779882 -0.2707012 -0.21168955 -0.2714301 -0.35507974 -0.14779991
-0.38053736 -0.31041244 -0.18052387 -0.2206724 -0.24796289 -0.435807 -0.20219357 -0.24922206
-0.24554825 -0.329931 -0.16823138 -0.3531417 -0.25706482 -0.09044521 -0.31658503 -0.2041418
-0.26321992 -0.2778793 -0.25673363 -0.2272502 -0.27253798 -0.17953226 -0.3540188 -0.06798131
-0.26334155 -0.25988543 -0.31347394 -0.07603629 -0.3474121 -0.3525544 -0.16221718 -0.37998086

bn3.running_mean f4 [128]
00000000: 1487 0540 a278 0740 df72 21c0 ab8d b4bf
00000010: 3959 393f a18e f3bf ee98 2ebe 8f96 83c0
00000020: 419b 5640 582a 7440 6939 3bc0 a49b b9be
00000030: 70f2 59c0 561e 0f40 ffb3 aabf 466f dc3f
00000040: 6b05 e93f 4146 913e 04c6 5f40 a2ef 563d
00000050: 27da a0bf ae41 83c0 772f 8bbe ca2b 3f3f
00000060: 6cac 08bf 0dc5 c840 c6d6 17c0 70a7 073d
00000070: 7f4e 3ac0 23de 77bf ced4 823f ba22 a7bf
00000080: 31df 12be cd38 09c0 5c7f c63f 342f 0cbf
00000090: dc38 63c0 ab6f b2be 0afa 1fbf e343 6ec0
000000a0: 9c8b 8ebf 2e2a 8e40 797c 3440 199a 4340
000000b0: 62fc 183f 7390 0840 81b4 ecbe cb58 60c0
000000c0: 8fab 4840 339a 6140 a027 09bf ecf5 3240
000000d0: cbc4 d1bf 876f 0640 4a9e 34c0 a04b 1140
000000e0: 30e6 f6bd 241f 07c0 18a4 30c0 5b5b 9abe
000000f0: 3ef5 c03f 3e40 d1bf b0d5 a4c0 6844 0d40
00000100: 2c80 f4bf 47c7 1740 5490 0640 3269 a7bf
00000110: f6e8 bbbf aec3 963f 6457 803f d19e 80c0
00000120: deec 4c40 3881 43bf d0bd 7740 2d0a 09c0
00000130: 112e 10bf 6ae3 893f d1aa 57bf 0e5e acc0
00000140: 8e3a 1ac0 404b c33e 4531 023f fd93 8cc0
00000150: f8d8 743f 730c a240 66ff 83c0 84df 3ec0
00000160: add3 0a3f b35d 4640 45bb 163f 0a84 6fc0
00000170: f093 3cc0 b758 c6bf 1e31 3740 4a69 7740
00000180: 127d ed3d 710c 883f 9f54 f9be 2014 7d3e
00000190: 26a1 ffbf 3388 2540 8bd6 8fc0 47f6 3140
000001a0: e264 49c0 c795 70bf 7ee8 d6bf f64c 12bf
000001b0: d6c5 34c0 299c 043e 6832 93bf 6318 8b3f
000001c0: 89c5 233e cad0 973f 82c0 0dbf 8ab0 dc3f
000001d0: 3d99 d23f ae03 ecbe a9f5 ea3f 601d 2ac0
000001e0: 8d5a 313f 90bb 3ebf 4ceb 25bf acf7 e9bf
000001f0: 3ae4 16c0 2631 a83f 9698 27bf 112e a6bf
2.0863695 2.1167378 -2.5226362 -1.4105734 0.7240177 -1.9027902 -0.17050526 -4.1121287
3.353226 3.8150845 -2.925379 -0.36251557 -3.4054222 2.2362266 -1.333618 1.7221458
1.8204778 0.28373912 3.496461 0.052474625 -1.2566575 -4.1017675 -0.2718465 0.7467619
-0.53388095 6.274054 -2.3724837 0.033118665 -2.911041 -0.9682333 1.0221193 -1.3057473
-0.14342953 -2.1440918 1.5507617 -0.54759526 -3.5503454 -0.3485082 -0.62490904 -3.7228935
-1.1136355 4.442649 2.8200972 3.0562804 0.59760106 2.1338165 -0.46231464 -3.5054195
3.135471 3.5250366 -0.5357609 2.7962599 -1.6388181 2.100557 -2.8221612 2.2702408
-0.120556235 -2.1112757 -2.7600155 -0.30147824 1.5074842 -1.634773 -5.151085 2.2073002
-1.9101615 2.371538 2.102559 -1.3078978 -1.4680469 1.1778467 1.002667 -4.019387
3.2019572 -0.7636905 3.8709602 -2.141246 -0.5632029 1.0772526 -0.8424502 -5.3864813
-2.409824 0.3814335 0.5085643 -4.393065 0.9564357 5.0640197 -4.1249266 -2.9823923
0.5422924 3.099469 0.588795 -3.742434 -2.9465294 -1.5495824 2.8623729 3.8658013
0.11596121 1.0628797 -0.48697373 0.24714708 -1.9971054 2.586438 -4.4949393 2.7806566
-3.1467824 -0.9397854 -1.6789701 -0.57148683 -2.824575 0.12950195 -1.1499758 1.0866817
0.15993322 1.1860592 -0.5537187 1.7241375 1.6453015 -0.46096557 1.835622 -2.658043
0.69278795 -0.7450495 -0.6481216 -1.8278708 -2.3576798 1.3139999 -0.654672 -1.2982808

bn3.running_var f4 [128]
00000000: 60ca aa40 06df bc40 ff3f a040 f6d8 1541
00000010: 5e0d f440 7786 a240 2065 dd40 e349 0841
00000020: 9e29 1041 fabd 1041 230d f940 2623 e840
00000030: cabc 0f41 67cd 5541 ecfd b540 d998 fd40
00000040: 36be d940 8e82 f140 e41a e540 cfa9 0c41
00000050: 1018 9a40 6545 b640 7ae2 0241 3c96 b040
00000060: 3067 fe40 6242 d440 81d4 dd40 bc0d fd40
00000070: 6c73 4041 ffc6 0741 12dd 1e41 e857 bf40
00000080: 4cf6 1b41 34f4 0341 56e2 f240 59b2 ca40
00000090: 8d54 9c40 59e7 f140 36f0 ea40 830c f240
000000a0: aa19 c640 2448 5941 b874 c140 9293 d740
000000b0: 036e 2241 4b65 2641 e64b bf40 0a7e 2641
000000c0: 23e5 f340 a838 de40 de5f e440 02fb b540
000000d0: 19f5 5841 537f 0e41 cd2d c340 8410 ed40
000000e0: 258e cb40 2724 f840 ef34 1041 832c f240
000000f0: 06ed e340 fae9 0341 f4c6 b640 a399 ba40
00000100: 1037 ed40 fac5 b440 2fdb aa40 b5c6 dd40
00000110: 3015 d440 b44a 2941 a35b 2941 042f 1041
00000120: 9667 f040 f49a fe40 3ad6 6a41 3f4d e140
00000130: 0426 8c40 f135 ec40 c955 c240 5537 1641
00000140: f036 1541 6036 da40 b411 d640 07c6 0941
00000150: 1de8 3641 8f00 fd40 4da2 0b41 4e68 f040
00000160: 40ee c540 84fb bc40 ee03 d440 c4b7 e340
00000170: 1658 2141 0fbe c340 7dd2 bf40 0c61 2441
00000180: 2d4c eb40 840c 1541 2834 1a41 5e5d 0741
00000190: c9c3 ca40 395d cc40 a03e 3141 2d50 a940
000001a0: 1c43 c740 2fea de40 bc81 e440 ada3 ee40
000001b0: 26ce 0041 4f12 bf40 7e87 0f41 f8e7 e140
000001c0: 3ae2 f140 4215 da40 ee92 1f41 4025 da40
000001d0: 7aaf 0941 bb99 c540 698b 2341 a443 0041
000001e0: 642c c940 0463 1641 095a ec40 a782 3e41
000001f0: 6c75 d440 21d5 e540 edb6 2441 37d0 b940
5.337204 5.9022245 5.007812 9.365469 7.6266317 5.078914 6.9185944 8.518039
9.01016 9.046381 7.7828536 7.2542906 8.983591 13.362647 5.6872463 7.924908
6.804469 7.547187 7.1595325 8.791457 4.8154373 5.695971 8.180292 5.518339
7.950096 6.6331034 6.9321904 7.9079266 12.028179 8.486083 9.928972 5.9794807
9.747631 8.24712 7.590129 6.334271 4.885321 7.5594907 7.3418226 7.5640273
6.190633 13.580112 6.045498 6.736764 10.151858 10.39973 5.978015 10.405771
7.621721 6.944416 7.1367025 5.6868906 13.559838 8.906085 6.099341 7.408266
6.3611016 7.754413 9.012923 7.5679336 7.1226835 8.244623 5.7117863 5.8312545
7.4129715 5.649167 5.339256 6.930506 6.6275864 10.580738 10.584872 9.011478
7.512645 7.956415 14.677301 7.0406795 4.3796406 7.3815846 6.072972 9.388509
9.325912 6.8191376 6.689661 8.6108465 11.431668 7.906318 8.727124 7.5127325
6.1853333 5.9057026 6.6254797 7.1161823 10.084005 6.1169505 5.9944444 10.273693
7.353049 9.315556 9.637733 8.460295 6.3363996 6.3863797 11.077789 5.291037
6.226942 6.966087 7.1408367 7.45748 8.050329 5.970985 8.970579 7.0595665
7.5588655 6.815095 9.9733715 6.817047 8.605341 6.175016 10.221536 8.016514
6.286669 9.399174 7.3859906 11.906898 6.6393337 7.1822667 10.29466 5.806667
