models/model.pth (torch, 385243 bytes, 20 tensors)

conv1.weight f4 [32, 1, 3, 3]
00000000: 6e44 133d 398c 88be 0372 863d 43f2 593e
00000010: 0daa f0bd d381 8d3e 63a2 1d3e 3e28 8d3e
00000020: 8df6 113e e5ba 22be a189 333d 1f2b 063e
00000030: bc13 8bbe 67a0 4abd 309b 0a3e 6efd 433e
00000040: cdba 993e 0f67 3dbe 77c0 d6bd 1ff6 5dbe
00000050: c515 bebd eae5 843e 6852 07be c8f2 cabd
00000060: 4168 0b3e 798c a9bc d4dc abbe f673 36bd
00000070: 426d 7a3d 7b1f efbd 2e7b a13e 5432 8ebd
00000080: b51b 5e3e c572 053e 46d5 cdbe 9b61 9b3d
00000090: 5738 8dbe 219c b33e 82ea cf3d ada5 663e
000000a0: 21b6 cabc 3309 bfbe 8b26 8ebc f203 16be
000000b0: 7626 2d3d c191 253e 997e 8cbe 5a14 19bc
000000c0: 03db 343e ad50 cdbe 41e7 e7bd bad4 dcbe
000000d0: d4c9 8d3e 7c86 52bd 950e c6bd 9c12 6e3d
000000e0: 243c e1be a5eb d3bc bedd a13d 4e5d 293d
000000f0: 1aa3 043e 64cf 72be 3524 cf3e 9095 003e
00000100: aa52 2ebe 6d9b f0bd 2bd8 4f3e 3100 b4be
00000110: 9219 533e 5f0c 45be 7ff2 62be bc1f 493b
00000120: 045b ff3d c8a2 f4bb e016 d1bc 6886 a6be
00000130: 30d3 9ebe 4f22 80be 7c64 d63d ccdf a33e
00000140: 9a29 af3c 31d5 9b3e 5586 dabe be92 a53e
00000150: 7e16 fabd acc5 02be 0e76 3c3e 4523 dd3d
00000160: 0702 a03d 2d09 bfbd daea a0bd d3d6 7c3e
00000170: 92c3 bcbe 0bd5 813e 2f4b aebd 5a72 1cbe
00000180: a237 9d3e f5f3 f9bd fccb a4be 7480 473e
00000190: 370e aebc c7eb 653e 8e5a ab3d 0585 81bd
000001a0: 6ca9 4cbe 39a9 37be 73f9 ec3c de15 dd3e
000001b0: 2cca fd3c f932 3c3e ae32 70be b1b6 fbbd
000001c0: d546 a03e d1fd c6be a49e 47be 7e60 733e
000001d0: 1ddb a13e 3781 863d 06c1 073c 266e 243b
000001e0: 38de 5bbe 2ecc 9fbe b8ec 8fbd 4e61 233e
000001f0: bc71 87bc f227 413e a566 973d f7ee febc
00000200: 664e 10be ca5a 213e 63f2 27be d6d6 37be
00000210: b93d 1dbe 124b abbe 17a0 503e 4280 f53c
00000220: 6b53 aa3e 19cc 83bd d263 b7be 05ea 66be
00000230: 698c b73d ac8e 3c3d da3d 803d a6fa d8be
00000240: 76ff 473d c644 973d aafa 203e b8cb e83d
00000250: d7b3 1f3e 0d99 8e3e 10b4 433e faf5 e93d
00000260: 36f6 dc3d 6e35 11be d940 643e f2b3 13bd
00000270: b16d 83be 9748 22be 64ef 263e 1d39 943e
00000280: 15ab e0bd 0566 b5bd e74f e6bd 6c94 23be
00000290: abe7 93bd 6005 56be 5633 5bbe b0af 653e
000002a0: 9150 4a3e aec2 8abc 9dc3 ec3c 489e cdbc
000002b0: aa05 9b3e a67f e43d 7e4c 853e 335a 24be
000002c0: dbc2 b13c a211 4b3e 966d f13c 8d3f ecbe
000002d0: ad84 afbd 1e61 86be 0be3 4ebd 8e38 883e
000002e0: 0785 13be 1946 40be 3f9f a23e 49f2 2d3d
000002f0: b480 813d c183 5cbe e587 a83e 5533 023e
00000300: 98f5 80be 9a55 92be 6819 5d3d bbec 0d3e
00000310: e4b7 68be efe4 25be 1430 e8bd aefe 16be
00000320: 78da af3e a009 50be 5667 dcbe 6c32 1dbe
00000330: cb0d 983e e321 9d3d cd53 29be 2bb6 4e3e
00000340: a050 bbbd 888b 4dbe f682 75be 7c4d 93be
00000350: a484 73bd b00c 4dbe af58 2a3d fa95 4d3e
00000360: 328d 18be 029a aebe 948d 2dbe d6d2 aabc
00000370: c84a 47bd 0ba8 293d d83f 993b 64c7 db3d
00000380: d10f 9c3e b353 1bbe aa9c 7c39 bd8e 433e
00000390: 1b17 89be 4cac f5bd d92a cb3e d182 3dbe
000003a0: 00bd 8fbc a51b 533e 83a6 433e e831 fdbb
000003b0: 55bd 843c 7057 b23e 6cc9 5d3e 6c9a 413e
000003c0: 8111 61be 1a51 a4be ffb9 c8be 5764 bebd
000003d0: e1a5 2bbd 5283 503e 2f2a 00be 8218 f33d
000003e0: 38ae d3bd 3a80 6dbe b0db 15be 97dc 42be
000003f0: b389 393e eaf8 bdbc a8bc debd 9942 c4bd
0.03595393 -0.2666948 0.06564715 0.21283822 -0.117511846 0.2763811 0.15393977 0.27569765
0.14254208 -0.15891607 0.043832425 0.13102387 -0.27163494 -0.049469378 0.13535762 0.19139645
0.3002533 -0.18496345 -0.104859285 -0.21675919 -0.09281496 0.2595666 -0.13215029 -0.09909588
0.13613988 -0.020696865 -0.33566916 -0.044544183 0.061139353 -0.11675926 0.3153929 -0.06943193
0.21690257 0.13032062 -0.40201777 0.07586976 -0.27582046 0.35080054 0.10152151 0.22524138
-0.024745049 -0.37311706 -0.017352363 -0.14649943 0.042273007 0.16168882 -0.27440336 -0.009343231
0.17661671 -0.40100613 -0.11323405 -0.43131047 0.27693045 -0.051397786 -0.0967075 0.058123216
-0.43991196 -0.0258692 0.07903622 0.041348748 0.12952843 -0.23711926 0.4045731 0.12557054
-0.17023721 -0.11748395 0.20297305 -0.35156396 0.20615223 -0.19243 -0.22162817 0.0030689081
0.12468532 -0.007465694 -0.025523603 -0.3252442 -0.31020498 -0.25026175 0.104683846 0.3200668
0.021382142 0.3043609 -0.42680612 0.32338518 -0.12211321 -0.12770718 0.1840441 0.10797743
0.07812887 -0.09327922 -0.078572944 0.24691324 -0.36867958 0.2535785 -0.08510434 -0.15277997
0.30706507 -0.12204734 -0.32186878 0.19482595 -0.021247013 0.22453223 0.08366881 -0.063241996
-0.19986504 -0.17935647 0.02892754 0.43180746 0.030980192 0.1837882 -0.23456833 -0.12290705
0.3130404 -0.38865522 -0.1949411 0.23767278 0.31612483 0.065676145 0.0082857665 0.0025090068
-0.21471488 -0.31210464 -0.070275724 0.15955088 -0.016533725 0.18862894 0.07392625 -0.031119807
-0.14092407 0.1575729 -0.16401057 -0.17953047 -0.15355577 -0.33455712 0.2037357 0.029968385
0.33266768 -0.06435413 -0.35818344 -0.22550209 0.08962328 0.0460345 0.06261797 -0.4237873
0.04882761 0.07386164 0.15720621 0.11366981 0.15595947 0.27851143 0.19111657 0.114238694
0.107891485 -0.14180538 0.22290362 -0.03606028 -0.25669625 -0.15848003 0.16302258 0.28949824
-0.10970131 -0.08857349 -0.11245709 -0.15974587 -0.072219215 -0.20900488 -0.21406302 0.224303
0.19757296 -0.016938534 0.02890187 -0.025099888 0.3027776 0.111571595 0.2603492 -0.16050033
0.02169936 0.19830945 0.0294712 -0.46142235 -0.08570228 -0.2624597 -0.050509494 0.26605648
-0.14406215 -0.1877674 0.3176212 0.04246739 0.06323376 -0.21534635 0.3291618 0.12714894
-0.25187373 -0.28580934 0.053979307 0.13859837 -0.22726399 -0.16200612 -0.11337295 -0.1474559
0.34346366 -0.20316172 -0.4304759 -0.15351266 0.29698023 0.07672479 -0.16535874 0.20186679
-0.091462374 -0.20072758 -0.23975739 -0.28770053 -0.059452668 -0.20024371 0.04158848 0.20076743
-0.14897612 -0.34101874 -0.16948539 -0.020852488 -0.0486553 0.041420024 0.0046768 0.1073139
0.30480817 -0.15168647 0.00024090955 0.19097419 -0.2677544 -0.11995754 0.39681128 -0.18506934
-0.017546177 0.20616014 0.19106488 -0.0077268966 0.016203562 0.34832335 0.21658868 0.18906564
-0.21979333 -0.32093126 -0.39204404 -0.09296482 -0.04190624 0.20362595 -0.12516092 0.11869909
-0.10335964 -0.23193446 -0.14634585 -0.19029461 0.18118934 -0.02318998 -0.10875827 -0.09583015

conv1.bias f4 [32]
00000000: 971a 5e3e 9975 733e b3dc 92bd e6d1 0d3e
00000010: 1b99 c93e 4179 723e dac7 263e a76a d5bc
00000020: 9190 8b3e 728f 89be 380d 523e b0f9 e9be
00000030: 709b 373e 8c15 e53e e959 bcbd bd45 573e
00000040: 9e23 f33e f0fe b9bd 329d 8cbe 0d5c 4abe
00000050: c9ed 18bf c5f1 573e 9aec 0c3e 3f8d 2b3e
00000060: eed4 99be 02ca c8bd 50d3 b53e 7338 6dbe
00000070: 21b2 5abd e88e c1bd aeb6 743d 10a8 713e
0.2168983 0.23775329 -0.07171001 0.13849601 0.39374623 0.23679067 0.16287175 -0.026051832
0.27258733 -0.26867253 0.20512855 -0.4569831 0.17930388 0.44743 -0.091968365 0.21022697
0.4748811 -0.090818286 -0.2746368 -0.19761677 -0.5973783 0.21088322 0.13762131 0.167531
-0.30045265 -0.09804155 0.3551278 -0.23166065 -0.053392533 -0.09451085 0.05974453 0.23599267

bn1.weight f4 [32]
00000000: bfde e03e 7a73 153f cf86 ac3f 0b79 303f
00000010: 405a 863f 331a 943f 2853 6a3f ad1b c33f
00000020: 28d7 9f3f a1a5 223f c17f a23f fd96 1a3f
00000030: 6b4f 643f 87d3 473f 0f96 b03f 85db 853f
00000040: 6fb9 083f 114f f93e f87f 1f3f 53f9 203f
00000050: 041a 833f 7aba a53f b9b8 bd3f cc09 c23f
00000060: 7ed9 983f 26cc 9b3f 21d4 743f 3b10 643f
00000070: 5d24 7a3f 0f85 5e3f ebba 923f 25f5 813f
0.43919942 0.5837933 1.347864 0.68934697 1.0496292 1.1570495 0.91533136 1.5242821
1.2487535 0.6353398 1.2695237 0.6038664 0.8918368 0.7805714 1.3795794 1.0457617
0.5340795 0.48693135 0.6230464 0.6288044 1.0242314 1.2947533 1.4821998 1.515924
1.1941373 1.2171676 0.95636183 0.89087266 0.97711736 0.8692178 1.1463293 1.0152937

bn1.bias f4 [32]
00000000: a79a 03bf 9df5 d4be 2fee 8cbe 8a16 aabe
00000010: 623f e83c 3a05 34be e3d8 38bd 1727 65be
00000020: 38b9 32be cce4 dbbe 1377 a6be 7dfd b4be
00000030: fe8a 90be 62de 90bd c2b5 e3bd ffd2 bfbd
00000040: 4a3c 1fbf 0bf1 36be 8432 12be ea84 c2be
00000050: e404 95be 28fa f6bd 7e44 94bd fc29 23be
00000060: 5fc1 83be 23ad 2fbe bd6e 48be 3358 99be
00000070: a56d b8be 487d 1cbe ad81 85be 4e33 0abe
-0.51407856 -0.41593638 -0.2752547 -0.3322032 0.028350536 -0.17580119 -0.045128714 -0.22378193
-0.17453468 -0.42947996 -0.3251272 -0.35349646 -0.28231043 -0.07073666 -0.11118652 -0.09366416
-0.6220137 -0.17865388 -0.14277083 -0.3799203 -0.29105294 -0.12059432 -0.07239626 -0.15933985
-0.25733468 -0.1715589 -0.19573493 -0.29950103 -0.36021152 -0.15282166 -0.26075497 -0.13496134

bn1.running_mean f4 [32]
00000000: 9c32 6d3e 63b0 753e 0ae8 a8bd 5834 113e
00000010: b658 c83e b21b 663e 1f43 243e 9e50 0abd
00000020: 4a1b 883e fb01 87be 10bd 4b3e c478 e6be
00000030: 4645 3a3e ba61 e33e 4d6e cdbd d70b 4d3e
00000040: 21d5 fe3e 23c8 bcbd ba41 8ebe 3f94 42be
00000050: 06a3 19bf e1f4 4c3e 7058 033e df76 1e3e
00000060: fff0 9bbe 38e0 c6bd 261e b53e 4c88 7abe
00000070: ac5b 5fbd e58e cebd 4173 683d 7ed0 6f3e
0.23163837 0.23993067 -0.08247383 0.14180124 0.3913018 0.22471502 0.1604123 -0.03376829
0.2658332 -0.26368698 0.1989634 -0.45014012 0.18190488 0.44410497 -0.10030804 0.20024048
0.4977198 -0.092178605 -0.2778452 -0.19001864 -0.6001438 0.20015289 0.12826705 0.15475033
-0.30457303 -0.09710735 0.35374564 -0.24466056 -0.054530784 -0.10085849 0.05675054 0.23419377

bn1.running_var f4 [32]
00000000: 305f ff3e 10c5 0d3e 554e bc3e 4420 ae3d
00000010: 6a60 df3d e708 da3e c50b 193e 206e 983e
00000020: 03d2 623e e211 a53d 7175 d73e 4f75 443e
00000030: c81a 013e 24e9 e93d 1673 b63e a154 883e
00000040: c5a7 863f 088e 4f3d 3c46 4f3e db17 b53e
00000050: 7b61 443e 4dd7 883e 842b 993e 054b ed3e
00000060: 32b8 ae3e c9b9 c93e 0d47 c63e 61eb 9c3e
00000070: 1afa 2a3e dbd4 f83d 38a1 993e 3fe2 a53e
0.4987731 0.13844705 0.36778513 0.08502248 0.109070614 0.42584917 0.14945896 0.2977152
0.22150426 0.080600515 0.42081788 0.19185375 0.12607872 0.11421421 0.3563468 0.26627067
1.0519949 0.05067256 0.20241636 0.35369763 0.19177811 0.2672676 0.29916012 0.46346298
0.34124905 0.39399555 0.38726082 0.3064833 0.16696969 0.12149974 0.30005813 0.32399175

conv2.weight f4 [64, 32, 3, 3]
00000000: 3db7 adbd 99bb f7bc 4b3e 3fbd 0dfb 833b
00000010: 28e1 21be 2f14 4bbe de0e 05be 4d0c 12be
00000020: 5ba4 58be b285 5ebe 6161 c93d 5e9d 8e3d
00000030: 3468 34bb c81a 103e 7a7b b43d 4ba1 be3a
00000040: 448c cdb7 9fd9 3fbe e809 c33d 1f97 47be
00000050: 3c69 c1bd a960 b9bd 8741 a7bd 3b26 49bd
00000060: ce0a 4cbd 7584 19bd eb63 753e 317e 613d
00000070: 6c45 babd 0833 033d 18dc b73d 48f9 bebd
00000080: 364e 1d3d 899f 1d3b 876c 39bd 7211 a9bc
00000090: a0e6 bd3c da96 783d efb0 833d 0e4c bd3b
000000a0: abb1 293d 0370 213d 5e87 5e3e 645b 9d3b
000000b0: 57a6 393d 8e0a 85bc 6d2a ffbd 328a 42be
000000c0: d3f7 133e 3046 04bd 1ecf 9f3c 7217 33bd
000000d0: d842 24be 8b49 03bd ae47 b33d 4550 3abe
000000e0: 1bc3 39bd b6db 993d 5ea3 cbbd 6d08 95bd
000000f0: 38bb 97bc a18c debd ba9c 8bbd 46ae 50be
00000100: 85c1 073d e0c6 ff3d cccf 4ebc 1d0d 0bbe
00000110: 1ced 913e 3c2e e4bd 73ee 913d 81af 6d3e
00000120: d955 adbc 9c39 8fbd 0401 edbc 8b5a 2cbd
00000130: 1974 0bbd 1c1f a4ba 4eda 053e 2fec d9bd
00000140: 7637 fa3d a213 0f3e 4a77 33bd 2b8f 613e
00000150: 325f 43bb 29ff d1bd 7554 7ebd d866 3d3e
00000160: 91ae 8e3d 74da 9cbc bde5 f73c 83db b23d
00000170: 4e14 f63c e699 54be 7fb7 173d cabc c6bb
00000180: 4e62 a8bc 2432 a4bc 2d0e 523e d6ee 91bd
00000190: 8508 6bbd b579 9cbd 1b9b 2fbe 693c 76bc
000001a0: ac38 f5bd 18db 10be 84c4 06be 47be 30be
000001b0: 2066 e43c f1c7 783c d017 fd3c b094 ecbd
000001c0: 094d 96bd 59b5 1cbe 6766 d9bd 6932 0e3d
000001d0: c000 25bd 7b67 323d 03fc 093e 21ee 953d
000001e0: 812d 653c 63d7 8fbd 2635 cfbd 772a 9bbd
000001f0: 1fbe c1bd 66f1 aabd 2f02 4fbd cd87 0b3e
00000200: fb38 1f3e b2b5 e8bc 633d acbd bcb7 323e
00000210: c0f6 6dbe c64a 7f3c f30b 883d d9ee d2bc
00000220: e857 b53d 2082 083a f18e ae3d d450 b9bc
00000230: a826 663d 5f64 033e f945 883c 9b51 babd
00000240: 55ec c1bd d6bf a6bd 3b28 b13b 9282 d9bd
00000250: c688 5abd 4ae1 35bd ccd1 6ebe bfe2 00be
00000260: a76b 50be 23fb 5bbe 5d71 933d 942f e4bc
00000270: 9ca9 543d 137d 9dbd 2799 9dbd 6715 e8bd
00000280: d0d4 bcbd c3fe 8dbe e507 67be ac15 9a3d
00000290: 5207 903d d587 fcbd 5bd9 933c 13cc e7bc
000002a0: c94f 213c 65f5 2e3d 72df e5bd 1509 673b
000002b0: 6b44 e3bd c5eb 623d bdb4 19be 7b29 63bc
000002c0: 4b50 e43d 79d9 db3d b190 8fbd d8cd 67bd
000002d0: 590a 623e fba1 bf3d 1d47 39bd 8f21 9e3d
000002e0: af5c c1bd 8686 17be d5c0 22bd 186a 65be
000002f0: fcdf 0e3e d783 78bd e2d6 323d 23fb 173d
00000300: 8077 383e 7df2 c3bd adfa db3d 4f36 3f3c
00000310: e7f4 83bd fc2e f9bd 6403 c5bd 8630 2cbc
00000320: 31bc b1bc 9503 213e 2598 87bd 082d 603c
00000330: 6fda 08bd 5319 ae3d 09c1 a33d 7ea1 e2bd
00000340: b388 ecbd 1550 7a3d 4c6c 1bbe 56f5 18be
00000350: 5d94 153e 4732 2ebe 3f76 9b3c 2ad1 383d
00000360: af18 93bd d749 753d 3c6e 22bd aaa0 a9bd
00000370: a369 803d 27f8 26bc e189 b0bc 843f ccbd
00000380: 8f4a 39be 2efe 04be 48ee 0f3e 62ed 0c3e
00000390: 8d98 d1bd 48c6 603e 8e86 d23d e85f afbd
000003a0: f486 503e ee45 30be 909e 0c3e 96d5 a53d
000003b0: 00df 723d bdc9 24bd 6f7c ccbd 18a2 b03d
000003c0: bb90 473d a7e9 a93d f4f7 763d b3e4 8ebd
000003d0: a754 44bd 7669 783d 0a58 403d 135e efbc
000003e0: bada 033d 618d bcbc 94ea 013e 46f9 86bb
000003f0: 4d51 013e bca1 87bc 1384 72bd 54b4 d33d
-0.084822156 -0.03024082 -0.046690267 0.0040277303 -0.15808547 -0.19831918 -0.12993953 -0.14262505
-0.21156447 -0.21730688 0.09833027 0.06963609 -0.002752793 0.14072716 0.08812614 0.0014543919
-2.450322e-05 -0.1873536 0.09523374 -0.19491242 -0.094439 -0.090516396 -0.08166795 -0.049108725
-0.04981499 -0.037479836 0.23963897 0.055051986 -0.090952724 0.03203109 0.089775264 -0.093248904
0.038404666 0.002405139 -0.045269515 -0.020638201 0.02318126 0.06069074 0.06430232 0.0057768887
0.041429203 0.039413463 0.21731326 0.0048021544 0.04532465 -0.016240384 -0.12459264 -0.1899803
0.14450006 -0.0322935 0.01950794 -0.04372353 -0.16041124 -0.032052558 0.08753906 -0.18194683
-0.045352083 0.0751261 -0.09943269 -0.07276998 -0.01852189 -0.108666666 -0.068170026 -0.2037898
0.03314354 0.12489104 -0.012622785 -0.13579221 0.28501213 -0.11141631 0.07125559 0.2321148
-0.0211591 -0.0699341 -0.028931148 -0.042078536 -0.034046266 -0.0012521478 0.13071558 -0.106407516
0.122176096 0.13972333 -0.043814935 0.2202727 -0.002981138 -0.10253746 -0.062092263 0.18496263
0.0696689 -0.019147135 0.030260915 0.08733275 0.030038979 -0.20761833 0.03704023 -0.006064986
-0.020554688 -0.02004344 0.2051322 -0.071256325 -0.05738117 -0.07640401 -0.17149012 -0.015029051
-0.119737 -0.14146078 -0.13160902 -0.17260085 0.027880728 0.0151843885 0.030895144 -0.115517974
-0.07338912 -0.15303554 -0.10615235 0.034716044 -0.04028392 0.043555718 0.13475041 0.0732081
0.0139879 -0.07023504 -0.10117559 -0.07576459 -0.09460091 -0.08346824 -0.05053919 0.13626023
0.1554908 -0.028406952 -0.08410146 0.17452902 -0.23238659 0.015581792 0.06642904 -0.025748657
0.088546574 0.00052073784 0.08523358 -0.02262155 0.05618921 0.12831257 0.016634928 -0.09097596
-0.09468905 -0.081420586 0.005406407 -0.106206074 -0.053353094 -0.044404306 -0.23322219 -0.12586497
-0.20353566 -0.2148252 0.07199357 -0.027854718 0.051919565 -0.07689872 -0.07695227 -0.11332207
-0.09220278 -0.2773343 -0.22561605 0.07523665 0.07032646 -0.123305954 0.01804798 -0.028295552
0.009845682 0.042714495 -0.112242594 0.0035253216 -0.11097034 0.05540063 -0.15010352 -0.01386487
0.11148127 0.10734839 -0.070100196 -0.056592792 0.2207426 0.09357067 -0.045233835 0.077212445
-0.09441506 -0.1479741 -0.03973468 -0.22403753 0.13952631 -0.060672607 0.04366196 0.037104737
0.18014336 -0.09567735 0.10741172 0.011670663 -0.06443196 -0.12167165 -0.09619787 -0.010509616
-0.021696182 0.15724023 -0.06620816 0.013682611 -0.03341144 0.08500924 0.07995803 -0.110659584
-0.11549511 0.06111153 -0.1517803 -0.14937338 0.14607377 -0.17011367 0.018977283 0.04512135
-0.071824424 0.059884872 -0.03965591 -0.08282597 0.062701486 -0.010191 -0.02155012 -0.09973052
-0.18094848 -0.12987587 0.14055741 0.1376243 -0.10234175 0.21950638 0.102795705 -0.085632145
0.2036398 -0.17214176 0.13732362 0.08097379 0.0592947 -0.040231455 -0.09984671 0.08624667
0.04872201 0.08296519 0.06029506 -0.06977215 -0.047932293 0.06064745 0.04695896 -0.029219663
0.032191016 -0.023016633 0.1268714 -0.004119071 0.1262867 -0.016556613 -0.059207987 0.10337129

conv2.bias f4 [64]
00000000: 232b c33d 86d7 6e3d 1aff 2cbc a66a 39b9
00000010: 9e60 39bd 0e1c 873d 18bf c83d dcd6 a93c
00000020: 7757 903d f011 cdbc 71ec 91bd bdd9 813c
00000030: 89b8 8abc b2ac bbbd 3daa d73b 3758 973c
00000040: 8890 f13d 3e45 313d 54ca 19bb 52b6 93bd
00000050: b2e1 c03c 607b 40bd 6627 a43d 7b45 b6bd
00000060: 3863 cabd 1778 9abd fe84 903b 1906 d6bd
00000070: 9ca7 bfbd 4786 fb3c 67e6 4fbc 1cc2 173d
00000080: 7328 033d 5682 d3bc 9c88 8b3d e87c 093e
00000090: 0c0f 083d 47ac 9a3d 0abe dc3d 25d9 47bd
000000a0: 95ff 32bc e2fc 55bd 0a75 e6bc cdf5 cdbc
000000b0: cbc0 dabd 508a 3abe a8cb d3bd 1d7a 293e
000000c0: a2a7 a5bd 30fa 32bd acfa 3cbc f705 22bd
000000d0: 5f9b ff3c a35b 93bd b974 313d ec6f b73d
000000e0: 3a5a 71bd f837 d43c 5899 f93c 9c87 1abd
000000f0: 8c78 0dbc 3188 fa3c 9ccb 923c 52e0 2cbd
0.09529712 0.058311008 -0.010558868 -0.00017682704 -0.045258157 0.06597148 0.09802073 0.020732336
0.070479326 -0.025032967 -0.07125176 0.015850896 -0.016933696 -0.091637984 0.0065815733 0.018474681
0.11795145 0.043278925 -0.0023466544 -0.07212509 0.02354512 -0.04699266 0.08015327 -0.08899971
-0.09882206 -0.075424366 0.004410385 -0.10450382 -0.09358141 0.030703677 -0.01268921 0.03705035
0.032020997 -0.025818985 0.068131655 0.13426554 0.033217475 0.075523905 0.107784346 -0.04879107
-0.010925193 -0.05224312 -0.02813198 -0.025141621 -0.106813036 -0.18216825 -0.10341579 0.16550489
-0.08088614 -0.04369563 -0.011534374 -0.03955647 0.031202016 -0.07195213 0.043324206 0.08956894
-0.058923937 0.025905594 0.030468628 -0.037726983 -0.008634698 0.03058252 0.017919354 -0.042206116

bn2.weight f4 [64]
00000000: a566 6d3f 2597 503f b80f 5b3f 9291 8f3f
00000010: 1f77 6c3f 7d9d 703f ce65 4f3f 8177 663f
00000020: 77e8 6d3f 80f9 793f 74e8 803f 379a 893f
00000030: bc71 a33f 5d92 583f 40af 3f3f 5698 693f
00000040: 3d87 3c3f 0dd2 843f ae8b 633f 385d 513f
00000050: d6f4 813f 3aee 6a3f 4b1b 783f 57f9 643f
00000060: 2476 533f 1db1 343f 5efc 853f a3f2 a73f
00000070: 38f8 aa3f 7256 673f bf8b 803f 2fd7 6e3f
00000080: 0ab5 763f 0d1a 6b3f 059b ad3f 8673 5e3f
00000090: 51c8 6b3f 347f a53f 94f9 543f 54f3 7d3f
000000a0: aab1 453f a57c 6f3f f1f3 543f 8917 7c3f
000000b0: 753b 523f 99bf 4b3f ecd8 a43f a179 a43f
000000c0: 54d8 833f b9dd 743f 3f88 413f 3fcb 753f
000000d0: 848e 4a3f 13a1 813f 29a2 7c3f 1b95 6c3f
000000e0: 4cdd 743f a62d 523f ac1e 6a3f 2bcc 6c3f
000000f0: 49a6 963f b755 803f 79e0 983f a3b4 8b3f
0.9273475 0.8148063 0.8557086 1.12163 0.92369264 0.9399031 0.81014717 0.900261
0.9293284 0.9764633 1.0070939 1.0750188 1.2769084 0.8459833 0.74876785 0.9124807
0.7364386 1.0376602 0.8888501 0.81782866 1.0152843 0.91769755 0.96916646 0.8944296
0.82602143 0.70582753 1.0467641 1.3120922 1.3357 0.9036628 1.0042647 0.93297094
0.96369994 0.91836625 1.3562933 0.86895025 0.92102534 1.2929444 0.83193326 0.99199414
0.7722422 0.9354957 0.83184725 0.9847341 0.82121974 0.7958923 1.2878699 1.2849618
1.0300393 0.9565082 0.7559852 0.96013254 0.7912371 1.0127281 0.98684937 0.92415017
0.9565017 0.82100904 0.9145305 0.92499036 1.1769496 1.0026158 1.1943504 1.0914501

bn2.bias f4 [64]
00000000: 8a41 61be 3444 91be 88eb b0be a9a2 74be
00000010: 6847 d3be 5a1b 13bf 7fd3 debe 465d c5be
00000020: 2c30 9cbe b32a 7dbe 7956 46bf 8b41 d5be
00000030: accd b5be 64ac aebe ff1a 1bbf 6041 97be
00000040: bfb6 08bf a49f 99be 231f 22bf 7f16 fabe
00000050: 5e79 19bf b609 e0be 3727 46bf c24b 31bf
00000060: f63f ecbe 7916 efbe faaf 0abf ca7d c9be
00000070: 2e10 a7be ea65 bfbe 9726 e2be 4a60 10be
00000080: 1c72 e2be 16b7 e7be a9a7 49be 3fe5 d6be
00000090: c38c b0be b3c4 9fbe 6170 f7be ddb2 71be
000000a0: f3d0 d8be 82b8 4cbe 7ecd bbbe 77e4 47be
000000b0: 4841 89be 4ca1 09bf 8a13 02bf 5f24 9bbe
000000c0: fe5e 2abe 18b1 c8be e8ac febe 6dbf e3be
000000d0: 74d6 22be d0b5 d5be db75 dcbe dacc 35be
000000e0: 7a32 d6be 7462 05bf fb2f dbbe c23f 25bf
000000f0: 86d2 8abe 23cb 07bf 3ebc 81be e25f c9be
-0.21997657 -0.28372347 -0.34554696 -0.23890175 -0.41265416 -0.5746361 -0.43520734 -0.38547724
-0.30505502 -0.2472332 -0.77475697 -0.41651568 -0.35508478 -0.341159 -0.6058807 -0.29542065
-0.5340385 -0.3000461 -0.6332876 -0.48845288 -0.59950817 -0.4375741 -0.7740359 -0.6925622
-0.46142548 -0.46696833 -0.5417477 -0.39353782 -0.32629532 -0.37382442 -0.44170067 -0.14099231
-0.44227684 -0.4525687 -0.19692864 -0.41971776 -0.34482393 -0.31204757 -0.48327926 -0.23603387
-0.42346916 -0.19992259 -0.36680216 -0.19520746 -0.26807618 -0.53761744 -0.50811064 -0.30301186
-0.16637799 -0.39197612 -0.49741292 -0.44481984 -0.1590212 -0.41740274 -0.43058667 -0.17753926
-0.41835386 -0.5210335 -0.42810044 -0.6455041 -0.27113742 -0.5304434 -0.2533893 -0.39330965

bn2.running_mean f4 [64]
00000000: e694 9fbe 36de eb3f 1d47 fdbf 299b a9bf
00000010: a84f 8dbf c3f1 c4be 2c09 dbbf 681e a2bf
00000020: 08e2 80bf a232 84c0 7728 00c0 94f1 74bf
00000030: 29ad 25bd cf0f b9bf f88d ddbf 0745 9fbe
00000040: 7a11 fa3f a3c9 cebf 00df 6e3c d74d 7dbf
00000050: 3ac1 65bf 97b1 fbbe 5052 863f e035 cbbd
00000060: bd17 5abf 087d 75bd 78d7 14c0 6a03 e0bf
00000070: f9d1 2ebf 50ec 183f 6523 c9bf 5033 f4bf
00000080: 2b09 2cbf af29 743f 10f5 9ebf 00bf ecbf
00000090: f864 28c0 de0a 53bf fd3f d83f 6886 51c0
000000a0: 4ed2 9e3f 15ff 94c0 1f6c 24c0 1a0f 6cbf
000000b0: 9116 06c0 98b2 39bf a4c1 39be 3939 d5bf
000000c0: 9806 413f d2de 0ec0 32cf 1fc0 98bb c9bf
000000d0: 2c86 c63f dda0 8bbf 7035 54bf be85 073f
000000e0: d419 01c0 c3da 6ebf 6876 53c0 6608 083f
000000f0: b680 0fc0 6c48 8dc0 9b8b 08c0 dd7c 38c0
-0.31168288 1.8427188 -1.9787327 -1.3250476 -1.1039934 -0.384657 -1.7112174 -1.2665529
-1.0068979 -4.131181 -2.0024698 -0.9568112 -0.04044834 -1.4457949 -1.730895 -0.3110735
1.9536583 -1.6155285 0.0145795345 -0.989469 -0.89747965 -0.49158928 1.049387 -0.09922385
-0.8519247 -0.059933692 -2.3256512 -1.7501042 -0.6828914 0.59735584 -1.5713927 -1.9078159
-0.6720149 0.95376104 -1.2418537 -1.8495789 -2.6311626 -0.82438457 1.6894528 -3.2738285
1.240793 -4.656138 -2.5690992 -0.92210543 -2.0951273 -0.7253814 -0.18140274 -1.6658088
0.75400686 -2.2323499 -2.4970212 -1.5760374 1.5509696 -1.0908467 -0.8289404 0.5293845
-2.0172014 -0.93302554 -3.304102 0.53137815 -2.242231 -4.4150906 -2.1335208 -2.882621

bn2.running_var f4 [64]
00000000: 3011 4d40 cbce ce40 dcb8 dc40 a17a b340
00000010: 6bd6 9b40 8e24 5d40 5725 9c40 ebe4 8f40
00000020: 1d50 c140 6492 5c41 7f33 3740 1e24 8c40
00000030: 0e9a 8e40 3704 5740 1628 8640 93e4 aa40
00000040: 18db 8d40 a848 0c41 8dd6 5340 5db2 de40
00000050: 6fc1 dc40 86cb c740 7ac2 7c40 62ce 2740
00000060: a700 f240 8d5f 6640 88d7 a940 baec db40
00000070: dd2a d240 799e 1e41 617c 1a41 b8ac ca40
00000080: 5a14 c140 adbe c540 eadd ec40 82b8 3940
00000090: 0df1 b340 a1d8 ab40 d11c c340 8f1d a640
000000a0: 42ea 8440 6afe 4641 ac65 c940 a534 0241
000000b0: 35e0 1d41 2843 2f40 11d0 d540 86dc e340
000000c0: 9ffe b340 e34c 9440 697b ad40 bd35 7540
000000d0: 9af5 ab40 6349 ad40 49b3 7740 d4a6 ff40
000000e0: ba0c 0141 17cc 8440 8c18 dc40 9a9d 7240
000000f0: 8180 d640 8099 cf40 827a 0541 85ce 0d41
3.204174 6.4627433 6.897566 5.6087193 4.869924 3.4553561 4.879558 4.496694
6.0410295 13.78574 2.862518 4.379409 4.4563055 3.3596323 4.1923933 5.340402
4.432995 8.767738 3.3099701 6.959273 6.8986125 6.243594 3.94937 2.6219716
7.5625796 3.599582 5.30756 6.8726473 6.5677323 9.91369 9.655366 6.333584
6.0337343 6.179526 7.402089 2.9018865 5.623175 5.370194 6.0972676 5.191108
4.153596 12.437113 6.293661 8.137853 9.867238 2.738474 6.6816487 7.1206694
5.6248317 4.6343856 5.4213147 3.831405 5.3737307 5.4152083 3.8703177 7.9891148
8.065607 4.1499133 6.8779964 3.7908692 6.7031865 6.487488 8.342409 8.86292

conv3.weight f4 [128, 64, 3, 3]
00000000: 6ca9 ac3d 98df 953a 3a2b 873d a0db 3e3d
00000010: 9556 f4bc 913d 1abd 2a15 d5bd 0596 253e
00000020: 1eb9 c03d a307 363d 6ca0 073e 5886 70bd
00000030: 3c53 833b 70a2 be3d 01c0 6bbd 9853 333d
00000040: 0d08 7f3d 6375 673d d62e 04be ae8e 973d
00000050: 033f 293d 23f0 7bbd 4030 6cbd 2500 9fbc
00000060: 102e c63c fe5e bcbd 1795 cfbd 29c6 073d
00000070: dc09 9a3d f014 90bd 283b 923d c0a1 afbc
00000080: e113 4bbd 1e10 1dbd 0e31 5e3d ed3c 363d
00000090: c5bf 6c3d 63a2 cdbc 5ca4 e13d 09d0 1f3d
000000a0: 2b48 7a3d 523d d2bd 5248 0e3e 29ec 7d3e
000000b0: 77a2 2ebd ab68 be3d 47ab 5bbd 1fee 9bbd
000000c0: 023d 223d ab53 a1bc 016e e8bd 127a 6f3d
000000d0: e2c2 d63d 887b 4c3e 36ce af3c 6bd4 bdbd
000000e0: 1e6a 03bd 4fe9 c0bc 184c 29bc cecf 8abd
000000f0: 165f 20bd 1157 c6bb 1615 d1bd f8bd 083e
00000100: f20e 013e 13d8 343e cbef a6bc fc1e 043d
00000110: cd34 5d3d 274c 11be 5775 ebbd dc17 28be
00000120: f2dc 33bd 013d 113e a0e5 14bd 76df 2dbe
00000130: 57f9 bdb8 0e4c 1abe a770 1dbd 2af6 10bc
00000140: eeee b33d 2c9c 81bd e8c9 a73c d27f f7bd
00000150: df7a 01bd 1141 d43d 9ede 853d 371c 99bd
00000160: 2923 8abd 114e eebc d1c4 e93b 2739 ff3d
00000170: da68 953c d8e4 e1bc e172 f93d 1676 c7ba
00000180: bcd9 ae3d 7e29 a8bd 9492 a23c e026 4e3d
00000190: adae 7e3c 324a 0dbe ae2e 90bd 3b5f 833d
000001a0: 045e 5bbd 2d4a 783d 40ec 1f3d 8c48 41be
000001b0: 6c57 fd3d ab69 93bd 2c45 6ebe 8f1d 57bd
000001c0: ebf2 23bd 950c 0abe 071e d93b 520d bfbc
000001d0: ec10 e3bd ec72 373d 4f70 44bb 8abd debd
000001e0: 0efd d63b 2353 bd3a c86d 62bc dd5f 86bd
000001f0: b30a f1bd 7317 67be fd07 403d 6aab 17be
00000200: 431a d0bd ad76 92bd 5b6f 603d 4e1b 333c
00000210: 3b02 31be d056 b23d c297 053e 8b6f c2bd
00000220: 1af2 edbc 8c8a e0bc 057c a13c 3495 003d
00000230: eb58 4d3d 0ed7 8fbd b682 153e b97e 083e
00000240: 0222 af3d f523 803d 3473 193d 2f8d ee3c
00000250: bd4f 89bd 749d f8bd 1c08 013e 6946 4c3e
00000260: b254 7ebd 0822 9d3d 2e62 a9bd 5978 00be
00000270: d475 81bd 8b88 dfbd f201 20bd f22a 073e
00000280: bd5e 073d 83d5 a7bd 20bc 253d c373 b5bd
00000290: 6084 bfbc c142 04bd 81ae 69bd eaf3 7d3d
000002a0: 8ce1 48bd 93b2 8e3d a222 babc 6fba 643d
000002b0: 0c77 733d c5b0 c2bd 9179 53bd a97e 38bd
000002c0: a2c7 3fba 62d7 a33d b5f4 043e e526 4ebe
000002d0: 0b86 bcbd 2672 463e eff1 1f3e 58fc 193d
000002e0: 7882 ebbb 850f dcbd 1ea7 c33c 1838 0fbd
000002f0: 2319 4cbe 8db2 cbbd d2ff 40be 4f80 14bd
00000300: b366 af3d 5141 033d f678 5cbe 1947 7dbc
00000310: 1d6a 263d 8475 d43d 9cda c1bb 1042 c2bc
00000320: 6db4 98bb 90d7 593d 1743 f33d b7ed b4bb
00000330: 0493 e63d 3d9e bcbd b739 dfbd 3a1f c73c
00000340: d649 273e 3b0d da3d f5ba c4bd 098c 1f3e
00000350: afb0 443c 6dc0 56be b75c 13bd 2e52 d1bd
00000360: 53b5 4b3d 5ab9 b03d f790 483e a725 883c
00000370: e4ee 24bd e204 f13d 4cb3 31bd 5a8d fd3c
00000380: b4e6 5f3c 934a 853d b248 f03c a6e4 1bbd
00000390: 2d38 8cbd 08b1 1dbb 52e1 ca3c b035 08be
000003a0: 977b 7fbd 292e 58bd 7f45 973d 903d 043d
000003b0: 837b 73bd 0466 05bc 778a 56be 02a4 ec3d
000003c0: f8ae 01bd 3a74 6dbc 3f6b 133e 7d05 67bd
000003d0: 7831 72bd af35 56be 18e8 c73d 491f e03d
000003e0: 11d0 903c e691 b73e 5913 a93c 3398 cbbd
000003f0: 3211 8abd 053d 68be dd7c 46be adef e2bc
0.08430752 0.0011434434 0.06600042 0.04659617 -0.029826442 -0.03765637 -0.10404427 0.16170509
0.09410308 0.044440877 0.1324479 -0.05872187 0.004007725 0.09308326 -0.057556156 0.043780893
0.062263537 0.056508433 -0.12908491 0.07400261 0.04131986 -0.06150831 -0.057663202 -0.019409249
0.024191886 -0.09197806 -0.101358585 0.033147965 0.07521412 -0.070352435 0.071401894 -0.021439433
-0.049579505 -0.03834545 0.054246 0.044491697 0.057800073 -0.025101846 0.11017677 0.039016757
0.06110398 -0.10265602 0.13894776 0.24797119 -0.042635407 0.092973076 -0.05363014 -0.07613777
0.039608963 -0.019693216 -0.113491066 0.058466025 0.1048639 0.19968998 0.021460634 -0.09269031
-0.032083623 -0.02354875 -0.010333084 -0.06777917 -0.03915318 -0.0060528596 -0.102091 0.13353717
0.12603357 0.17660551 -0.020378014 0.03225611 0.054005433 -0.14189206 -0.1149699 -0.16415352
-0.04391188 0.14183427 -0.0363518 -0.16979775 -9.0586655e-05 -0.15068075 -0.03843751 -0.008847753
0.087858066 -0.063286155 0.020482019 -0.12084927 -0.03161132 0.10363973 0.065366015 -0.07476085
-0.067449875 -0.02908996 0.007134058 0.12462073 0.018238474 -0.027574942 0.121801145 -0.0015217687
0.08537623 -0.08211039 0.019845285 0.050330043 0.015544576 -0.13797835 -0.070401534 0.06414648
-0.053556457 0.060617615 0.039043665 -0.1887533 0.1237019 -0.07197889 -0.23268574 -0.052518424
-0.040026587 -0.13481362 0.006625894 -0.023321781 -0.11087212 0.044787332 -0.0029974168 -0.108759955
0.006560928 0.0014444332 -0.013820119 -0.06561253 -0.11769619 -0.22567539 0.04688262 -0.14811483
-0.10161259 -0.07151542 0.054793697 0.010931803 -0.17286007 0.087079644 0.13046172 -0.094939314
-0.029046107 -0.027409814 0.019712457 0.03139229 0.050133627 -0.0702344 0.14600644 0.13329591
0.08551408 0.06256858 0.037463382 0.029120056 -0.06704662 -0.12139407 0.1260075 0.19948734
-0.06209249 0.076725066 -0.082706794 -0.12545909 -0.06321302 -0.109147154 -0.039064355 0.13199976
0.033049334 -0.08195021 0.040462613 -0.088599704 -0.023378551 -0.032290224 -0.057051186 0.062000193
-0.049043223 0.06967654 -0.022721592 0.05584186 0.059439704 -0.09506372 -0.051629607 -0.045042668
-0.00073158194 0.080000654 0.12983973 -0.20132025 -0.09205254 0.19379482 0.15619634 0.03759417
-0.007187184 -0.107451476 0.023883399 -0.034965605 -0.19931464 -0.09946165 -0.18847588 -0.036255177
0.0856451 0.032044712 -0.21530518 -0.0154588455 0.04062854 0.10373977 -0.005915953 -0.023713142
-0.0046601803 0.053184092 0.11878031 -0.005521502 0.1125851 -0.09209869 -0.1089968 0.024306882
0.1633676 0.10647055 -0.09605972 0.15580763 0.012005015 -0.20971842 -0.03597709 -0.10220753
0.04973347 0.08629103 0.1958655 0.016619517 -0.040266886 0.117685094 -0.04338388 0.03095119
0.013665844 0.065083645 0.029331539 -0.038059853 -0.06846652 -0.0024061818 0.024765644 -0.1330173
-0.062373724 -0.052778397 0.07386302 0.032285273 -0.05944396 -0.008141998 -0.20951258 0.115547195
-0.031661004 -0.014493043 0.1439638 -0.05640172 -0.05912921 -0.20918916 0.09761065 0.10943467
0.017677339 0.358535 0.020639108 -0.09941139 -0.06741561 -0.22679527 -0.19383569 -0.027702177

conv3.bias f4 [128]
00000000: 552e 2bbc f42c 97bc 98c1 28bd 1d3c 73bc
00000010: 2ff4 96bc b7d4 41bb d09d 15bd 02ea 79bc
00000020: eb95 91bb 67be d93c dfa2 abba 9127 d43c
00000030: aa3a 0e3d 3de6 763a 2266 bd3b a0a9 acbc
00000040: 8049 9c3c fca4 433b 908c 1ebd 55ed 20bd
00000050: 4b65 09bd 06ec 9b3b a51f 0f3d 3061 f0bc
00000060: c79d ebbb e20f 57ba c590 7ebb 6d83 113d
00000070: ed3f 783b edb7 ac3c 952f e53b e0f8 453d
00000080: 624c ee3c 8953 063d dcf7 c23c 7ab6 90bc
00000090: 3b53 debc 271e b4bc 6bce 303c 4e40 893c
000000a0: beb3 babb 1461 14bc a651 4b3c 0124 07bd
000000b0: 7810 b33c b55f b43c fcdd fabc 206e b73c
000000c0: 5014 ffbb 7106 9fbc d66a 2ebd 58e4 d63c
000000d0: 8119 a8bc 1651 85bc 091d 84bc 2716 2cbb
000000e0: d862 fb3c 2b89 40bc bd38 97bc 57aa 5cbb
000000f0: 3eb6 6bbb 891c ceba 9cfa 04bd b1e1 c23c
00000100: 75a6 193c e509 113d 84f1 143d 8c8f 573b
00000110: 3b14 5a3c 65d1 f839 831c 26bc d281 3fbc
00000120: cb56 dfbc 346e f5bb 3bc2 12bd 3e4e 583d
00000130: d62f 35bd 6e63 053d a334 03bc e5b2 a2bc
00000140: e759 46bc 8f52 02bc d814 223d ea5c 07bd
00000150: c1e3 a7bc bf76 c7bb 573d 02bd eae5 7cbc
00000160: 2d28 29ba b400 cb3c 0124 cbba 977c 293d
00000170: 1668 f83c ef68 423c 53b3 debc 6aad 0a3d
00000180: 1086 00bd 1956 f9bc 55dd 1fbb 3e2f 2cbc
00000190: 7952 ce3c 0a4f 01bd 8710 e1bb 9134 fdbc
000001a0: 3f97 0c3d 0623 1c3d c17a 393d 6a51 d4bc
000001b0: 9826 f53a 72a6 cb3b d7f3 153c fc27 3b3d
000001c0: 6516 9b3c a421 8cbc 0821 b93c 8ac3 9abc
000001d0: 3478 7c3c 52be a5bb d473 3f3d 501c 26bc
000001e0: f802 1bbd a73b 02bd 089e 20bb d47c d4bc
000001f0: f934 013d 4d8c c13c b616 18bd b66c 21bb
-0.010448058 -0.018454053 -0.04120025 -0.014845875 -0.018426983 -0.002957625 -0.036527455 -0.015253546
-0.0044429204 0.026580049 -0.0013094804 0.025897773 0.034723915 0.00094184635 0.0057799974 -0.021076977
0.019078016 0.0029852977 -0.03870827 -0.039288837 -0.033543866 0.004758361 0.034942288 -0.029343218
-0.0071904394 -0.0008203966 -0.0038843614 0.035525728 0.00378799 0.021083796 0.0069941976 0.04833305
0.029089157 0.03279451 0.02379983 -0.017665137 -0.027139297 -0.021987034 0.010791401 0.016754296
-0.0056976965 -0.009056348 0.012409603 -0.03299332 0.021858439 0.022018293 -0.030623429 0.022391379
-0.007784404 -0.019412251 -0.042582355 0.02623193 -0.020519974 -0.016274016 -0.016127126 -0.002625832
0.03068678 -0.011751453 -0.018459672 -0.0033670866 -0.003596678 -0.0015725057 -0.032465562 0.023789259
0.009378065 0.035409827 0.03636314 0.0032891957 0.013310487 0.00047458257 -0.010138634 -0.011688666
-0.027263066 -0.007489944 -0.035829764 0.052808993 -0.044235073 0.032565527 -0.008008155 -0.019860694
-0.012106395 -0.007954254 0.03957066 -0.033047594 -0.020494344 -0.0060871537 -0.03179678 -0.015435675
-0.0006452825 0.024780609 -0.0015498401 0.041378584 0.03032307 0.011865838 -0.027185118 0.033856787
-0.031377852 -0.030436562 -0.0024393399 -0.01050931 0.02518581 -0.03156952 -0.0068684253 -0.030908855
0.034323927 0.03811934 0.045283083 -0.025917728 0.0018703518 0.00621491 0.009152374 0.04569243
0.018931577 -0.017105885 0.022598758 -0.018892068 0.015409518 -0.0050580883 0.04674132 -0.010138586
-0.037844628 -0.03179517 -0.0024508256 -0.025938429 0.03154466 0.023626471 -0.037131034 -0.0024631447

bn3.weight f4 [128]
00000000: 8d06 ad3f 8301 9e3f c69c b63f 748f a13f
00000010: cda7 983f fcdb a53f 57a8 a63f b0c4 a83f
00000020: c6f0 b23f dbd2 9d3f d7bf 9a3f 8c0d 953f
00000030: 0a4d a23f 89d2 a13f 7de8 a43f fc4c af3f
00000040: 907a a03f 4c71 a33f 0780 a13f f921 9e3f
00000050: e569 bf3f 87dd a33f 4de3 a03f 5e1e a53f
00000060: 6f70 ac3f 40fc b83f a2ce 9a3f 7adb 9e3f
00000070: a156 a13f 712c 993f 4084 b93f bc15 9e3f
00000080: 8091 9d3f aefc 9c3f d3a2 9c3f 8554 a33f
00000090: 3b25 953f dfb4 9a3f dfd3 993f 3498 963f
000000a0: cff8 b53f aba3 b03f e141 a43f e6f2 9c3f
000000b0: 5ce7 af3f 1347 9b3f 7929 a33f 9209 983f
000000c0: 68bc a43f 6ab5 a53f 9a44 a03f 2c30 a03f
000000d0: bb4c 993f c967 9e3f 3b6a 9c3f e863 ba3f
000000e0: 2426 a43f f5a9 9c3f dbfe a23f 0862 9b3f
000000f0: 24a5 ae3f c051 ac3f 9cfe ab3f 5093 aa3f
00000100: dcb6 a13f 66a1 a23f 9d81 b33f ed96 9c3f
00000110: 6e74 a83f c63a a33f 7a6e a63f c11d a43f
00000120: 5a60 9e3f 5ca3 ac3f 9908 b13f 56c5 9e3f
00000130: 092a a23f a80d a53f df0e 9e3f ecb9 9e3f
00000140: 85bc 9a3f 13f3 903f ed3e c33f 0567 9d3f
00000150: 18ba 9f3f 4821 a33f 1b28 973f ecc7 9d3f
00000160: 22e9 9b3f e184 a13f 53e5 9b3f 1e02 9f3f
00000170: b97d a43f 305a 943f cc07 983f e83a 9a3f
00000180: d7bd b83f 0421 ae3f d1ed 9d3f 57ad b83f
00000190: c3aa a03f 0878 a33f ed17 993f 3d00 a83f
000001a0: be0f a53f 7c22 a33f f125 b43f bff0 aa3f
000001b0: a18b aa3f 6eb5 ad3f a438 ad3f 136e a03f
000001c0: 8298 a73f bed8 9f3f 63b1 a73f 5dc1 a53f
000001d0: c55c b23f a311 a03f 1449 a83f aa38 993f
000001e0: ef8d ac3f a959 a93f ec46 9e3f 1b30 a33f
000001f0: 535f b33f f6f5 a53f 984f 9c3f a591 ac3f
1.3517624 1.2344211 1.4266593 1.2621903 1.1926209 1.2957759 1.3020123 1.3185024
1.3979728 1.2329973 1.2089795 1.1644759 1.267976 1.2642375 1.288345 1.3695369
1.2537403 1.276895 1.2617196 1.2354118 1.4954191 1.280198 1.2569367 1.2899892
1.3471812 1.445198 1.2094309 1.2410729 1.2604562 1.1966687 1.4493484 1.2350383
1.2310028 1.2264612 1.223719 1.2760168 1.1651987 1.2086447 1.2017783 1.1765199
1.4216555 1.3799948 1.2832605 1.2261627 1.374248 1.2131065 1.2747031 1.1877921
1.2869997 1.2945988 1.2520936 1.2514701 1.1976541 1.2375423 1.2219919 1.4561739
1.282414 1.2239367 1.2734026 1.2139292 1.3644147 1.3462448 1.3437076 1.3326206
1.2633929 1.2705505 1.402393 1.2233559 1.3160532 1.2752311 1.3002465 1.282158
1.2373154 1.3487353 1.3830749 1.2403972 1.2669078 1.2894793 1.2348288 1.2400489
1.2088782 1.132418 1.5253578 1.2297064 1.2478666 1.2744532 1.1809114 1.2326636
1.2180521 1.2618676 1.2179359 1.2422521 1.2850868 1.1590023 1.187738 1.2049227
1.4432935 1.3603826 1.2338201 1.4427899 1.2552112 1.2771006 1.1960427 1.3125073
1.2895429 1.2744899 1.4074079 1.335472 1.3323861 1.3570993 1.353291 1.2533592
1.3093417 1.248802 1.3101009 1.2949635 1.3934561 1.2505382 1.3147302 1.1970417
1.3480815 1.3230487 1.2365394 1.2749056 1.4013466 1.2965686 1.221179 1.3481947

bn3.bias f4 [128]
00000000: ddc3 f1bd 2749 b0be fdfa 29be 17d3 51be
00000010: cc7b a7be c445 31be 6145 34be 9295 87be
00000020: d208 82be a4c4 83be 0ed6 83be 44af 5dbe
00000030: 2f2d 03be a67a 74be 0c6c c5be 48dd 75be
00000040: 6ccb b7be dfbd 98be e5af 9fbe 479e 9abe
00000050: bcda 8bbe 86c5 afbe d1ff 4abe 2904 d1bd
00000060: 7924 a7bd 1adf 7cbe e121 47be a741 27be
00000070: a5c3 91be 97aa 42be 3cdd 4fbe f210 63be
00000080: a011 acbe dc79 6abe a25d 39be b636 a0be
00000090: 3cc0 abbe fe98 28be b8e9 9abe 24d1 c8be
000000a0: 2f32 88be 7ab5 44be 2247 dabd a24c a2be
000000b0: 3e77 15be d918 3dbe de93 15be 4c53 9ebe
000000c0: 136a aabe 1cdc 81be 14f3 27be 76f4 c8be
000000d0: e68e 83be ce1c 24be 78e3 5bbe 3510 74be
000000e0: 212d 49bc 4007 5ebe 6ac0 96be f750 f4be
000000f0: f31d 91be d914 3cbe df70 acbd 4f10 41be
00000100: 4401 86be b013 aabe 8cdf 68be 2126 73be
00000110: 52be 9bbe 06d6 8cbe fa0d 56be 4c49 e8bd
00000120: d9f2 a1be 958f 3fbe fa60 69be db04 fabd
00000130: 409d 3cbe 5a7d 27be 6a33 d1be 881c 60be
00000140: 16ce a2be a3f0 bebe d880 d0bd 4b83 c0be
00000150: 6c95 aabe c6be 16be 9963 85be c2ef dcbe
00000160: eb05 87be cca2 41be d4a6 37be 6263 a7be
00000170: d689 92be e1a8 b7be 5238 b6be 50be 70be
00000180: f3cf 1abe 77d2 57be 109e 5ebe 13d8 90be
00000190: 8d1a fcbd c25d b1be 598f 61be 077b 9bbd
000001a0: 0c75 10be 2ba3 23be f451 9dbe 2253 5dbe
000001b0: fefd 8ebe 6ab0 17be 0ab1 0bbe 3514 81be
000001c0: 5840 32be 80fd 82be c44b 44be 44a0 99be
000001d0: 2b02 38be 45fe 5bbe 0f4b 52be 3358 83be
000001e0: 0264 b5be f3d0 b3be 24b7 8fbe 58c4 29be
000001f0: 95f8 11be 0cbc d7be 8296 4abe 44e0 52be
-0.11804936 -0.3443081 -0.1659965 -0.2049068 -0.32711637 -0.1731177 -0.17604591 -0.264813
-0.25397354 -0.25735962 -0.25749248 -0.2164889 -0.12810205 -0.23874912 -0.38558996 -0.24010193
-0.35897386 -0.2983236 -0.31188884 -0.3019888 -0.2731532 -0.34330386 -0.19824149 -0.102058716
-0.081612535 -0.24694481 -0.19446518 -0.16333638 -0.28469577 -0.19010387 -0.20299238 -0.22174433
-0.33607197 -0.22898048 -0.18102124 -0.3129174 -0.335451 -0.16464612 -0.30256438 -0.39222062
-0.26600787 -0.19209853 -0.10658099 -0.3169909 -0.14596269 -0.1846651 -0.14607188 -0.30922925
-0.33284053 -0.25363243 -0.1640132 -0.3924901 -0.2569496 -0.16026613 -0.21473491 -0.23834307
-0.012278826 -0.21682453 -0.29443675 -0.4771802 -0.28343162 -0.18367328 -0.08419966 -0.18853877
-0.2617284 -0.33218145 -0.22741526 -0.23745014 -0.3041864 -0.27507037 -0.20903769 -0.11342105
-0.3163059 -0.18707116 -0.227909 -0.12207957 -0.18419361 -0.16356412 -0.40859538 -0.21885884
-0.31797856 -0.37292966 -0.10180825 -0.3760017 -0.33317125 -0.14721212 -0.2605255 -0.4315167
-0.26371703 -0.18909758 -0.17934734 -0.3269301 -0.28620785 -0.35871032 -0.35589844 -0.23510098
-0.15118389 -0.2107638 -0.21739984 -0.28289852 -0.12309752 -0.34641844 -0.22027339 -0.07591825
-0.1410715 -0.15980212 -0.30726588 -0.21613744 -0.27928156 -0.1481339 -0.13641754 -0.2521073
-0.17407358 -0.2558403 -0.19169527 -0.30005085 -0.17969577 -0.21483715 -0.20536445 -0.25653228
-0.35427862 -0.35120353 -0.28069413 -0.16578805 -0.14254983 -0.42135656 -0.19783977 -0.20593363

bn3.running_mean f4 [128]
00000000: 4638 7bbd 8f27 06c0 2cb8 3440 3623 8cc0
00000010: ef5c 13c0 da86 0140 846f 5cbe 3a59 f93f
00000020: 14a1 a13f 03bc c33d 7242 69c0 6bbd c740
00000030: caff c4bf 4bd1 72bf 9886 2fc0 4b00 d13f
00000040: 502a 79bf fcc4 60bf 5c44 03c0 c979 0740
00000050: 12b8 09c0 72ec d23f c908 98bf 927f 12c0
00000060: c687 af3f ff0f 0b40 44d3 5fbf c34b 04c0
00000070: 51ca 46bf 3bdc 06bf 9446 283e b061 543f
00000080: fbab 753f c5cd bbbf 4193 57c0 7c4f 7340
00000090: 7ade 0d40 5d0c a73f e31d 32c0 20c6 36c0
000000a0: cb5b 23c0 0587 5ac0 3817 d6bf 3b48 a9be
000000b0: 31a5 0c3f 570b 8b3f a235 47bf ad4e 08c0
000000c0: 623e d0bf 7dea 8abe 6429 f83f d740 b4bc
000000d0: 25a3 b1bf 804a a83f 2f89 30bf 9237 813f
000000e0: 31e8 9240 c710 42bf 6b3d b2bf 97ed 4e3d
000000f0: 691f c53f 6d0c 0ebf b991 f93f 999e 333e
00000100: 4e90 8440 948e 4dbe 9554 8d3f be13 20c0
00000110: 32a6 2740 92bc 10c0 e9a2 72c0 8135 a140
00000120: 3849 ca3e dc65 3e40 45bd a43f 4ebd d13f
00000130: a49f 4bc0 d1b1 613f ce88 5b40 570d 75c0
00000140: f705 ea3f 0816 4dc0 779d ae3f 4de1 89bf
00000150: 5509 0c3f e174 b740 cd5e 7e3f ddf5 4b3f
00000160: df2e 04c0 c428 57bf 3f12 46c0 7049 943f
00000170: 8d2e efbf 6c1f 3c3c 543a bdbf 30db 79bf
00000180: 16fc 6d40 fa4a 2bbf e890 09c0 6401 2340
00000190: f6f5 253f e030 df3e 7dde afc0 7b9d 8dc0
000001a0: 0d3d 953f 7443 0540 b67c 2240 1914 e4bf
000001b0: 5f0d 64be 5673 a03f 0892 0940 4940 0b3f
000001c0: 08c8 98c0 6a22 6ac0 5b3d c5c0 1652 3340
000001d0: 3528 7340 26dc 36bf 4905 e63e c592 bebf
000001e0: 010b 4540 554d 2540 e41d e83f 76ef 19bf
000001f0: d4bc 81bd 48f7 c63e 8544 8ebf 9097 f0bf
-0.061332963 -2.0961645 2.823741 -4.379298 -2.3025472 2.0238557 -0.21526915 1.9480355
1.2627282 0.09557345 -3.6446805 6.2418723 -1.5390561 -0.94850606 -2.74259 1.6328214
-0.9733019 -0.87800574 -2.0510473 2.1168082 -2.1518598 1.6478407 -1.1877681 -2.2890363
1.371331 2.1728513 -0.8743174 -2.0671241 -0.7765246 -0.52679795 0.16433173 0.8296156
0.95965546 -1.4672171 -3.3683627 3.8017263 2.216704 1.3050648 -2.7830741 -2.8558426
-2.5524776 -3.414491 -1.6725836 -0.3306292 0.5493956 1.0862836 -0.7781621 -2.129802
-1.6269038 -0.27132025 1.9387631 -0.022003574 -1.3877913 1.3147736 -0.68959326 1.0095084
4.5908437 -0.7580685 -1.3924993 0.050519552 1.5400211 -0.5548771 1.9497596 0.17540969
4.1426153 -0.2007392 1.1041437 -2.501205 2.6195188 -2.2615094 -3.7911932 5.0377812
0.39508986 2.974967 1.287026 1.6385896 -3.1816187 0.8816195 3.430225 -3.8289392
1.828307 -3.2044697 1.3641804 -1.0771881 0.5470174 5.7330174 0.99363405 0.7967203
-2.0653608 -0.8404658 -3.0948637 1.1584911 -1.8686081 0.011482101 -1.4783425 -0.9760008
3.718511 -0.6691128 -2.1494694 2.5469599 0.6482843 0.43591976 -5.495909 -4.4254737
1.1659256 2.082242 2.5388618 -1.7818633 -0.22270726 1.2535198 2.149538 0.54394966
-4.774418 -3.6583505 -6.1637397 2.8018851 3.799329 -0.7142967 0.44925907 -1.488854
3.0787966 2.582845 1.8134122 -0.60131013 -0.06334844 0.38860536 -1.111466 -1.8796253

bn3.running_var f4 [128]
00000000: 5d4b 2441 c124 cd40 7afc 0941 2c4b 2241
00000010: f681 f840 eddc e040 15b2 1141 a691 c240
00000020: 344c e940 6a47 e340 a4c3 0541 2bec e840
00000030: e54d d340 4706 2241 32e4 ba40 0f77 2641
00000040: 09a8 d540 ded9 1f41 fe9d dd40 0dfe e940
00000050: c7ae 2441 42ef de40 d6cf f240 ef77 f340
00000060: b4f8 0941 094f f940 67d1 1241 9c3f 0741
00000070: c551 d440 a134 0241 53f2 0d41 d180 c840
00000080: c7d9 9140 485a 8840 0fc1 e540 8d05 e040
00000090: 3be6 9b40 7ea1 dd40 a653 0841 927a b440
000000a0: 0341 1541 b185 2641 c86f e240 45d7 9740
000000b0: 7040 0241 2451 d840 4466 0741 4a28 ad40
000000c0: bd80 f240 ccf2 f340 550e b340 9a7b 0a41
000000d0: 19cb 0f41 3ec7 0541 ab1e ed40 7933 5441
000000e0: 37cd bd40 7c97 e140 3b0f ad40 3282 e140
000000f0: 68b2 ff40 28e3 c240 de66 b140 9136 0741
00000100: 70c1 0341 6b28 1241 0752 3041 5b14 8140
00000110: b39e 0541 3335 2041 192e df40 d81e f440
00000120: 058b a240 53a6 e040 f4f3 0641 909b e840
00000130: 5181 1b41 3cc2 f840 6a67 9340 afea d240
00000140: f38d 2541 7d3f ac40 0b5c 2e41 161f ac40
00000150: 2160 f940 52a8 ec40 8254 d040 7ac4 0041
00000160: 301e d140 c256 fa40 f344 b040 ab0d f440
00000170: 681e f240 a859 b840 262c 0341 5b87 c140
00000180: 8c96 0041 dbcd 3141 bbd6 2a41 a574 1841
00000190: 47fc 0c41 5fbc e440 c06f ca40 8636 2841
000001a0: feab 9a40 8236 0341 73a2 d040 1ae1 0641
000001b0: eb53 1441 2cb6 8f40 a4ac a040 f01b 9440
000001c0: 82b1 f840 1eb8 b240 8a20 1b41 b8b9 f540
000001d0: f034 3841 5f96 f540 2f0d bd40 6ab7 9c40
000001e0: 60f2 d540 5f45 d640 120b d940 64f0 ba40
000001f0: 01d2 e040 02ff 1d41 5a37 e240 5d5b 1041
10.268399 6.4107366 8.62414 10.1433525 7.7658644 7.0269685 9.105977 6.0802794
7.290552 7.1024675 8.360264 7.278829 6.6032586 10.126533 5.840356 10.404067
6.676762 9.99069 6.925536 7.312262 10.29267 6.9667063 7.5878706 7.6083903
8.623219 7.790898 9.176124 8.45303 6.6349816 8.137849 8.871661 6.2657247
4.557834 4.2610207 7.1798167 7.0006776 4.8718543 6.9259634 8.520422 5.639962
9.328372 10.4076395 7.076145 4.745028 8.140732 6.759905 8.462467 5.411168
7.578215 7.6233883 5.5954995 8.655176 8.987084 8.361143 7.4099936 13.262567
5.9313006 7.0497417 5.408109 7.047143 7.990528 6.090229 5.543807 8.450822
8.234726 9.134868 11.020026 4.033735 8.351245 10.012988 6.974377 7.628765
5.07947 7.0203032 8.434559 7.2689896 9.719071 7.7737103 4.606374 6.591148
10.347156 5.38275 10.897471 5.3787947 7.7929845 7.395547 6.510316 8.047968
6.534935 7.8230906 5.5084167 7.6266685 7.5662117 5.7609444 8.198278 6.047773
8.036755 11.112758 10.677424 9.528478 8.811591 7.1479945 6.3261414 10.513311
4.833495 8.200808 6.51983 8.429956 9.270488 4.490988 5.0210743 4.6284103
7.7716684 5.5849752 9.695444 7.6789207 11.512924 7.674606 5.9078593 4.8973894
6.685837 6.695968 6.7826014 5.8418446 7.0256352 9.874758 7.069257 9.0223055
